uniRecommendation/recommendation/DataProcessing/GNNmodel.pth (torch, 54216 bytes, 7 tensors)

conv1.lin_l.weight f4 [64, 66]
0.011160628 0.03958731 0.065595485 -0.053234644 -0.11689565 -0.034863643 -0.08732078 0.10802256
-0.03770273 0.090669535 -0.07719661 0.048370026 -0.066113904 -0.045848764 -0.08449055 -0.0055877445
-0.058243345 -0.06651337 -0.08871731 -0.03002525 -0.067442074 -0.0036070072 0.047587063 0.029578578
0.015040402 0.071897194 -0.107319415 0.054296333 0.11129739 -0.091748215 -0.05786705 0.08579253
-0.059543245 0.0186991 -0.09764991 0.077418014 0.07716685 -0.031191807 0.026013747 -0.0042854273
0.02252486 -0.012909416 0.08890853 -0.110000305 0.0063096294 0.006295024 -0.12278202 -0.03385762
-0.116211124 -0.032311577 0.039328575 -0.016079132 -0.019685682 -0.038839772 0.020748248 -0.0016808205
-0.08606658 0.09807922 0.08814763 -0.050097644 0.10189888 -0.046015095 -0.115966216 0.103136204
0.09003907 -0.075820915 0.065660544 0.097295046 -0.0062163495 -0.003155177 -0.11863468 -0.102460876
0.10988329 0.03614448 0.044252902 -0.042794 -0.008411129 -0.07477316 0.044062033 -0.048541624
0.09637504 -0.027311869 0.00929912 0.03894991 0.09847422 0.09498655 0.025602924 -0.103966415
-0.0250134 0.047681276 -0.0105369445 -0.0073033613 0.051320262 0.07030183 -0.06866841 -0.04427577
-0.0850228 0.12444137 -0.056001984 0.0003736987 0.039617766 -0.0006924676 -0.03987235 0.0904634
0.0654881 0.03767805 0.0050219554 0.12510447 -0.1091885 0.059095092 -0.033993773 -0.029594544
-0.0178379 0.017777784 0.057090074 -0.04404873 -0.07277935 -0.038582046 0.01625409 0.080201976
-0.008390561 0.089135624 -0.097736225 -0.09493696 0.026557287 0.07538652 0.050186403 0.047181282
0.05803349 0.031650957 0.06302533 -0.042915273 -0.115453005 -0.0029492131 0.066165775 0.10788728
0.05703625 0.059415128 -0.06669617 -0.11913366 -0.03875016 -0.01452915 -0.0358705 -0.008996741
-0.103678964 -0.02174921 -0.124522716 -0.09501389 -0.047235806 -0.035234906 0.0011103608 0.05364863
0.05164811 0.11659346 0.0034418856 0.06928641 0.037246518 0.11514433 0.05540802 0.114395276
0.10745478 0.09678323 -0.013452552 0.07280358 0.033791002 0.077420935 -0.012679181 -0.10883314
0.08320075 0.04533003 0.0016786453 -0.04943314 0.106492154 -0.08596161 0.09433632 0.0008223576
0.030671516 -0.08831554 -0.096536346 0.022413451 -0.005987495 -0.030545522 -0.12180893 -0.03965644
0.09619318 0.041149188 -0.049582623 -0.05243027 0.008234881 -0.09400457 0.10490576 0.033037256
0.09347194 -0.10265228 -0.010680685 0.116491705 -0.102150664 -0.05038033 0.068343624 -0.10917914
0.07907815 -0.06297796 -0.05103458 0.04231373 0.042967867 0.04954958 -0.023736296 0.10801617
-0.13265039 0.07813394 0.04815454 0.12424456 0.10437026 -0.086097 -0.11982699 -0.0016856568
-0.021846406 -0.083284505 -0.0932149 0.032567855 -0.01038646 -0.09364089 0.060467202 -0.07874562
-0.10396102 -0.11035143 -0.0537486 0.12884659 0.03185919 0.08925984 0.11473504 0.041001864
0.008932368 0.05036344 -0.026267115 0.12748548 0.086085774 -0.057949886 -0.025168879 0.0055398545
0.06745098 0.040995624 -0.02429311 0.09459798 -0.024094598 -0.06535568 -0.11268701 0.13074183
-0.027556717 0.12577742 0.02795243 -0.042709265 0.0656915 -0.08548355 0.09378439 0.07409572
00000000: 11db 363c 4e26 223d ed56 863d 920c 5abd
00000010: fd66 efbd 2ecd 0ebd 3dd5 b2bd ef3a dd3d
00000020: 2e6e 1abd f3b0 b93d 4219 9ebd a61f 463d
00000030: ba66 87bd eacb 3bbd 6209 adbd 6619 b7bb
00000040: 9390 6ebd 2938 88bd 6cb1 b5bd 83f7 f5bc
00000050: 121f 8abd 8a63 6cbb a7ea 423d c64e f23c
00000060: 056c 763c d63e 933d 48ca dbbd d565 5e3d
00000070: e3ef e33d 7de6 bbbd 0006 6dbd feb3 af3d
00000080: 9ee3 73bd db2e 993c adfc c7bd 568d 9e3d
00000090: a709 9e3d f685 ffbc c81a d53c c56c 8cbb
000000a0: 0e86 b83c 0482 53bc ad15 b63d d747 e1bd
000000b0: 02c1 ce3b 7d46 ce3b 2475 fbbd 4aae 0abd
000000c0: 1900 eebd 2559 04bd 0017 213d 62b8 83bc
000000d0: de43 a1bc 7416 1fbd 3bf8 a93c fa4e dcba
000000e0: ad43 b0bd c2dd c83d bf86 b43d 3033 4dbd
000000f0: 5cb0 d03d 537a 3cbd b27f edbd 1339 d33d
00000100: 6766 b83d ff47 9bbd 0979 863d a042 c73d
00000110: 85b2 cbbb 16c7 4ebb bdf6 f2bd 02d7 d1bd
00000120: 7e0a e13d 3c0c 143d 8842 353d c348 2fbd
00000130: d5ce 09bc ac22 99bd 647a 343d 95d3 46bd
00000140: 4760 c53d 24bd dfbc 565b 183c f189 1f3d
00000150: daac c93d 4f88 c23d 39bd d13c 58ec d4bd
00000160: e7e8 ccbc 714d 433d 26a3 2cbc 0951 efbb
00000170: 3235 523d 68fa 8f3d 06a2 8cbd 835a 35bd
00000180: 6f20 aebd 1edb fe3d 5662 65bd feec c339
00000190: 3d46 223d b786 35ba 3051 23bd e044 b93d
000001a0: a01e 863d 4d54 1a3d 378f a43b 631b 003e
000001b0: 389e dfbd b20d 723d 0e3d 0bbd 4270 f2bc
000001c0: ca20 92bc b7a2 913c 48d7 693d 716c 34bd
000001d0: 570d 95bd 3508 1ebd 4c27 853c ef40 a43d
000001e0: 9078 09bc bd8c b63d ee29 c8bd 4f6e c2bd
000001f0: ab8e d93c 3f64 9a3d 4290 4d3d 2941 413d
00000200: 86b4 6d3d 6fa4 013d 6d13 813d edc7 2fbd
00000210: a072 ecbd 9647 41bb ec81 873d 02f4 dc3d
00000220: d89e 693d 475d 733d 0098 88bd 59fc f3bd
00000230: 7db8 1ebd ac0b 6ebc f2ec 12bd 1167 13bc
00000240: a355 d4bd 662b b2bc c405 ffbd a496 c2bd
00000250: 557a 41bd 7a52 10bd 8789 913a aabe 5b3d
00000260: f88c 533d 8dc8 ee3d 4291 613b 09e6 8d3d
00000270: ce8f 183d cad0 eb3d 85f3 623d 1248 ea3d
00000280: 4011 dc3d 4936 c63d 1868 5cbc 0b1a 953d
00000290: 6f68 0a3d de8e 9e3d 57bc 4fbc e9e3 debd
000002a0: 2865 aa3d fbab 393d fd05 dc3a 677a 4abd
000002b0: 8f18 da3d a40c b0bd 6733 c13d 7c93 573a
000002c0: d542 fb3c c7de b4bd d9b4 c5bd 6a9c b73c
000002d0: c032 c4bb 9a3a fabc f676 f9bd cb6e 22bd
000002e0: ee00 c53d 0d8c 283d 2617 4bbd 1fc1 56bd
000002f0: 98eb 063c 7885 c0bd d5d8 d63d 1352 073d
00000300: 376e bf3d 5c3b d2bd 0afe 2ebc 3493 ee3d
00000310: 5e34 d1bd 9b5b 4ebd bef7 8b3d 5099 dfbd
00000320: baf3 a13d 97fa 80bd a309 51bd 2951 2d3d
00000330: 13ff 2f3d 80f4 4a3d 9f72 c2bc 9537 dd3d
00000340: 81d5 07be b004 a03d b23d 453d ef73 fe3d
00000350: 13c0 d53d a053 b0bd da67 f5bd 42f1 dcba
00000360: 3cf7 b2bc 1191 aabd 74e7 bebd df65 053d
00000370: f92b 2abc ccc6 bfbd 75ac 773d 6245 a1bd
00000380: 84e9 d4bd eeff e1bd 7e27 5cbd 5cf0 033e
00000390: c87e 023d ddcd b63d 34fa ea3d 92f1 273d
000003a0: 1159 123c e549 4e3d 222e d7bc 8e8b 023e
000003b0: bd4d b03d dc5c 6dbd f72e cebc ab87 b53b
000003c0: bd23 8a3d 07eb 273d 5802 c7bc 96bc c13d
000003d0: 0962 c5bc 33d9 85bd 72c8 e6bd 30e1 053e
000003e0: a0be e1bc cccb 003e 7ffc e43c e9ef 2ebd
000003f0: 4489 863d 0012 afbd 0812 c03d 7fbf 973d

conv1.lin_l.bias f4 [64]
-0.03797048 -0.04516053 0.061897762 0.05911825 -0.11092281 -0.029049022 -0.07757492 -0.07139075
-0.051193018 0.08275785 0.094422 0.040271483 0.008252801 -0.056039914 0.011033777 -0.039392516
-0.012759219 -0.027452338 0.0462619 -0.032921538 -0.012224078 -0.014940343 -0.009474141 0.077443115
0.05528796 0.09347012 0.044480104 -0.037951533 -0.031078836 -0.11123011 0.033360425 0.031327967
0.030865088 0.028834661 -0.024215417 0.059966117 -0.017250976 -0.004015951 0.0939343 -0.070239626
0.005004484 0.07675885 0.03375649 0.09625182 0.0050819595 -0.016200013 0.0735548 0.120338306
-0.09770728 0.021090025 0.05617536 0.06985014 -0.11310981 -0.057993364 -0.111257926 -0.019207645
-0.10436384 -0.081377015 -0.09934453 0.07650408 0.016277937 -0.11415948 0.09456224 -0.0317887
00000000: ef86 1bbd 3ffa 38bd 8288 7d3d fa25 723d
00000010: 802b e3bd 37f8 edbc 9adf 9ebd 5035 92bd
00000020: c5af 51bd f37c a93d 5260 c13d b6f3 243d
00000030: c236 073c 1c8a 65bd 04c7 343c 0c5a 21bd
00000040: 0b0c 51bc bae3 e0bc 1e7d 3d3d bcd8 06bd
00000050: 8047 48bc 57c8 74bc 6d39 1bbc 7f9a 9e3d
00000060: a175 623d 436d bf3d c530 363d 1173 1bbd
00000070: 0b99 febc 9dcc e3bd f1a4 083d c151 003d
00000080: c8d8 fc3c ab36 ec3c 695f c6bc 089f 753d
00000090: eb51 8dbc 3d98 83bb a060 c03d cbd9 8fbd
000000a0: a8fc a33b be33 9d3d 3f44 0a3d ad1f c53d
000000b0: 9186 a63b e4b5 84bc e6a3 963d ee73 f63d
000000c0: c11a c8bd fdc4 ac3c 2218 663d 970d 8f3d
000000d0: 1ea6 e7bd 738a 6dbd 32db e3bd 5a59 9dbc
000000e0: b5bc d5bd fea8 a6bd 2575 cbbd 2cae 9c3d
000000f0: 4f59 853c 72cc e9bd d9a9 c13d de34 02bd

conv1.lin_r.weight f4 [64, 66]
-0.07261784 0.09405363 0.03340826 -0.08833946 -0.10632133 -0.041029412 0.083367966 0.039934136
-0.0380488 0.016630705 0.07289505 0.09938085 0.08164073 0.002067209 -0.1012257 0.07470379
0.08170153 0.07233005 -0.073474556 0.092959024 0.11541377 0.074973196 -0.10238355 0.10242798
-0.12719846 0.080789216 0.083843894 -0.010110161 -0.0017531451 -0.12773974 -0.09288057 -0.10733904
-0.02405374 -0.04467821 -0.010067676 0.01866601 -0.0935598 -0.10165329 -0.06644805 0.03145176
0.08104272 0.078651376 -0.026663553 0.0026732457 -0.108075164 0.047336165 0.025559006 0.10000981
-0.02282944 0.105781704 -0.044748973 -0.085644 0.084178835 0.02553662 0.006311202 -0.1051144
0.039617356 -0.03489604 -0.11297584 -0.020162692 -0.08330153 -0.11547129 -0.105753794 0.08653344
0.09209697 0.111939915 -0.07413088 0.021539029 0.1046448 0.0101194065 0.07633713 0.11756646
0.046699744 0.022514379 0.014246705 0.024441341 -0.027764194 -0.039238136 -0.12102409 -0.046087388
0.011680078 -0.05173632 -0.02401391 0.020014098 -0.09770185 0.09464827 0.07398452 -0.035563506
0.07809771 0.104081064 -0.03522068 -0.0723307 -0.12298035 -0.06610118 -0.047134873 0.00967215
0.0038838068 -0.08907304 -0.0061152726 -0.0006662864 -0.009926474 -0.10464369 0.0019802824 -0.010920555
-0.0009880355 -0.108894795 0.090523005 0.006968164 0.04271592 0.10155553 0.010168692 -0.044097632
0.11990842 -0.09301287 0.07578105 -0.035505492 0.08142681 -0.06125459 0.10862962 -0.035192046
0.016850999 0.027959567 -0.08545348 0.0116618825 -0.012922422 -0.010121809 0.107273825 0.10220487
0.11475281 -0.046143476 -0.095176384 0.023985988 0.038606018 -0.15311664 0.00725423 0.021250395
0.034490626 0.008279009 0.061824802 0.0310916 0.04585458 0.061336923 0.04833845 0.00037797348
-0.101637706 0.02778299 -0.019990837 -0.026780471 -0.028492382 -0.011845279 0.066308424 -0.092627876
0.10140175 -0.057228304 -0.11075422 -0.022814993 0.010658938 -0.033193935 -0.06812578 -0.09900156
0.026091538 0.025091793 -0.058778513 -0.021764353 0.06171342 -0.07588824 -0.06571736 0.03597848
-0.10554625 0.0113750715 -0.08474277 0.027208716 -0.012024689 -0.07208047 -0.09563241 -0.07893289
-0.012643271 -0.004728862 -0.039528698 0.080467775 -0.00450751 -0.075685084 -0.09794941 -0.050543062
-0.09210692 0.1160107 -0.08575314 -0.032355264 -0.08120497 -0.047666673 0.060759485 -0.112582296
0.082500055 0.025527894 0.08529321 -0.09830457 -0.085234165 -0.12118987 -0.08705396 -0.07690172
0.055412326 -0.09490535 -0.08764914 0.04361853 -0.10802404 -0.05901119 -0.104352385 0.08089625
0.11868524 0.04811363 -0.009821813 -0.043643847 -0.08632709 0.058924578 0.043872014 -0.09862549
-0.072484106 0.10289182 -0.08196896 0.017699607 0.07311093 -0.034585383 -0.011977357 0.03549287
0.055139493 0.097925596 -0.011648251 -0.09968108 0.0973654 -0.0699005 -0.025640573 0.058195576
0.073986515 -0.08826043 -0.083882414 0.010283865 -0.052175343 0.00044760498 -0.06396996 0.11746859
-0.070193 -0.09413925 -0.06062264 -0.07732646 -0.07884625 0.08389355 -0.0815248 -0.0887376
-0.008852304 -0.08092906 -0.115765244 0.007602315 -0.048257817 -0.11767778 0.009891536 0.10073976
00000000: a9b8 94bd 319f c03d 1ad7 083d 52eb b4bd
00000010: ffbe d9bd 750e 28bd d3bc aa3d fa91 233d
00000020: 0fd9 1bbd 1e3d 883c 004a 953d 3088 cb3d
00000030: 4133 a73d 037a 073b 6b4f cfbd 4dfe 983d
00000040: 2253 a73d c721 943d d479 96bd 4d61 be3d
00000050: 0e5e ec3d 8c8b 993d 77ae d1bd c3c5 d13d
00000060: 5040 02be d174 a53d 59b6 ab3d 17a5 25bc
00000070: cac9 e5ba 35ce 02be 2b38 bebd 92d4 dbbd
00000080: 590c c5bc 8000 37bd e5f2 24bc 76e9 983c
00000090: 489c bfbd 9a2f d0bd ea15 88bd 90d3 003d
000000a0: baf9 a53d f913 a13d 866d dabc 9f31 2f3b
000000b0: 8356 ddbd 91e3 413d 1f61 d13c f1d1 cc3d
000000c0: ce04 bbbc 14a4 d83d b34a 37bd 1f66 afbd
000000d0: f465 ac3d 2c32 d13c 33ce ce3b 3846 d7bd
000000e0: cf45 223d 26ef 0ebd e15f e7bd 3b2c a5bc
000000f0: fe99 aabd 367c ecbd 7295 d8bd 7238 b13d
00000100: 569d bc3d c140 e53d eed1 97bd 9e72 b03c
00000110: 0350 d63d decb 253c a456 9c3d afc6 f03d
00000120: 3b48 3f3d 1370 b83c 036b 693c 3539 c83c
00000130: bc71 e3bc 2bb8 20bd 7adb f7bd 21c6 3cbd
00000140: cc5d 3f3c 77e9 53bd d2b8 c4bc 9bf4 a33c
00000150: e817 c8bd f4d6 c13d 3285 973d 0aab 11bd
00000160: b1f1 9f3d 7428 d53d 8f43 10bd 1e22 94bd
00000170: 1fdd fbbd 0e60 87bd 7f10 41bd f077 1e3c
00000180: 7787 7e3b ed6b b6bd a062 c8bb b9a9 2eba
00000190: a6a2 22bc 6e4f d6bd a0c7 013b 21ec 32bc
000001a0: f880 81ba 3c04 dfbd 2064 b93d 3255 e43b
000001b0: e3f6 2e3d 59fc cf3d 969a 263c b89f 34bd
000001c0: 8c92 f53d 887d bebd 1833 9b3d 356e 11bd
000001d0: 19c3 a63d 18e6 7abd 3579 de3d 8925 10bd
000001e0: 1b0b 8a3c 760b e53c 3c02 afbd 7b11 3f3c
000001f0: 91b8 53bc f2d5 25bc 61b2 db3d c950 d13d
00000200: 8503 eb3d f100 3dbd d6eb c2bd 437e c43c
00000210: 5821 1e3d 9cca 1cbe e4b4 ed3b 4f15 ae3c
00000220: 0b46 0d3d aea4 073c 013c 7d3d d0b3 fe3c
00000230: 03d2 3b3d 6d3c 7b3d 8afe 453d be2a c639
00000240: 6e27 d0bd 2799 e33c d3c3 a3bc b862 dbbc
00000250: db68 e9bc b312 42bc b6cc 873d afb3 bdbd
00000260: b9ab cf3d 3a68 6abd 1cd3 e2bd 82e6 babc
00000270: d4a2 2e3c 5df6 07bd 8785 8bbd 54c1 cabd
00000280: ecbd d53c 4e8d cd3c bdc1 70bd 284b b2bc
00000290: 36c7 7c3d 4b6b 9bbd d396 86bd 2c5e 133d
000002a0: a228 d8bd 825e 3a3c 9e8d adbd d0e4 de3c
000002b0: 3303 45bc ed9e 93bd edda c3bd 91a7 a1bd
000002c0: b925 4fbc 92f4 9abb d8e8 21bd 4acc a43d
000002d0: bcb3 93bb c800 9bbd b399 c8bd 3e06 4fbd
000002e0: 8ea2 bcbd 0597 ed3d 589f afbd f486 04bd
000002f0: cb4e a6bd 213e 43bd f0de 783d 8c91 e6bd
00000300: caf5 a83d e01f d13c 35ae ae3d e853 c9bd
00000310: 408f aebd 6532 f8bd 5949 b2bd a67e 9dbd
00000320: 09f8 623d bc5d c2bd 6481 b3bd 58a9 323d
00000330: b53b ddbd b8b5 71bd b4b6 d5bd efac a53d
00000340: 3f11 f33d cc12 453d abeb 20bc e4c3 32bd
00000350: 42cc b0bd e65a 713d 24b3 333d 29fc c9bd
00000360: 8c72 94bd f2b8 d23d 58df a7bd c4fe 903c
00000370: 2fbb 953d 67a9 0dbd ad3c 44bc f960 113d
00000380: f3d9 613d 378d c83d 4ed8 3ebc 9825 ccbd
00000390: 8367 c73d fe27 8fbd 2e0c d2bc 7c5e 6e3d
000003a0: 3e86 973d e2c1 b4bd 8bca abbd a87d 283c
000003b0: d0b5 55bd 86ac ea39 af02 83bd 5f93 f03d
000003c0: 59c1 8fbd 14cc c0bd 724f 78bd 565d 9ebd
000003d0: 257a a1bd 62d0 ab3d 79f6 a6bd 0fbc b5bd
000003e0: 4109 11bc 23be a5bd 5416 edbd d71c f93b
000003f0: fda9 45bd 0c01 f1bd 1c10 223c a650 ce3d

conv2.lin_l.weight f4 [32, 64]
-0.076607645 -0.005204791 -0.05005175 -0.08159281 -0.0678121 -0.07013165 0.0016378037 -0.10138623
-0.09170887 -0.058604736 0.12381893 -0.07232586 -0.029786667 0.08466681 0.009426615 0.01375606
0.1327256 0.05830454 0.07086257 0.012710772 0.11605306 0.113542855 0.11691921 0.07465546
-0.08139991 -0.081527054 0.081340924 -0.013844105 0.029429272 -0.11962441 0.0715503 -0.009563927
-0.00632549 -0.122780815 -0.028618623 0.07674991 0.010236406 -0.0859987 -0.10419578 0.12629905
0.12423278 0.0073872064 0.07291112 0.045915358 0.07325161 -0.12583277 -0.025397027 -0.08707054
-0.092987396 -0.05288309 0.049693216 0.108099036 0.13185315 0.10218431 -0.02218411 0.092726946
0.037931673 -0.07459669 -0.020832023 -0.06599408 0.08803732 0.123361826 0.08285202 -0.0445441
0.09030965 -0.006469743 0.052097607 0.0112379445 0.108358495 0.04042612 0.06721319 -0.113549724
-0.06033269 -0.0834746 0.10092731 -0.11498742 -0.13174504 0.11046651 -0.08095217 -0.096767254
-0.17636953 -0.07905665 0.05964274 0.07200872 -0.033508215 0.115943775 0.11164678 -0.07724311
0.08753415 -0.05150341 0.051044464 0.0091768615 -0.029815981 -0.05576114 0.08682986 0.047803514
0.049130592 0.06897171 -0.013661596 -0.07785762 0.07094039 0.053065244 0.039912082 0.05613192
0.01584848 0.040208995 -0.11707294 -0.0878658 -0.07333115 -0.09200486 0.11403429 0.046604153
0.043605823 0.07586734 0.051310148 0.0781576 -0.15459622 0.09025466 0.09453128 -0.07003522
-0.12705308 0.048476353 0.2250378 -0.07533576 -0.020494346 -0.041220903 -0.0017855205 -0.00844583
-0.10769046 -0.0447071 -0.023536747 -0.060402185 0.057494815 -0.10608854 -0.014409009 -0.11188285
0.08606395 -0.08793991 -0.11447061 0.11352924 0.1095218 0.12036688 0.06045661 0.07519915
-0.06325067 0.04548398 -0.0035367613 -0.06827702 -0.027917769 -0.03828232 0.117989 -0.025129065
-0.11507181 -0.084463626 -0.102805406 -0.07567758 0.04953823 0.016554717 0.072433904 -0.0446402
0.024690352 -0.058357958 -0.016881926 -0.055775817 0.039035756 -0.0788602 -0.08804673 0.047988772
-0.06511816 0.071528435 -0.1030466 0.07804309 0.009763229 0.010975485 0.07246966 0.07696781
0.05501667 -0.09089511 0.102837816 -0.04891334 -0.081885755 0.095633015 -0.10466652 0.008523682
-0.058595236 0.015177047 0.00035505486 -0.007167298 0.029800484 0.07589953 -0.09948006 -0.0045966287
0.077946566 -0.04227736 -0.043407224 -0.03468854 0.07260279 0.02681228 -0.0007789396 0.04633237
-0.08651216 -0.1286843 -0.075968996 0.07216016 -0.05926242 0.08755341 0.04930724 -0.03805501
-0.06549187 -0.029481005 0.026756447 0.09383467 0.1001111 -0.011426359 0.017118756 0.045114715
-0.07124618 -0.086312644 -0.06085025 0.069652095 -0.022379344 -0.034897827 -0.013424855 0.04379797
0.123718806 -0.09282379 0.10621543 -0.05172121 0.10322963 0.019782709 0.017788636 -0.043697435
0.038788103 0.03134217 0.10813824 0.034389228 0.028154725 0.07617818 0.076858744 -0.0058734845
0.15272076 -0.05479017 -0.07647694 0.051299505 0.016955579 -0.12595785 0.09345902 -0.05887632
0.032752827 -0.059562966 0.06954336 0.085734785 0.039778188 0.108102426 0.10062394 -0.096761696
00000000: 78e4 9cbd f48c aabb 1003 4dbd 221a a7bd
00000010: 12e1 8abd 2fa1 8fbd 93ab d63a 95a3 cfbd
00000020: dcd1 bbbd 850b 70bd c794 fd3d 951f 94bd
00000030: 2b03 f4bc cb65 ad3d 1772 1a3c 1961 613c
00000040: 38e9 073e bed0 6e3d 6520 913d d840 503c
00000050: 3aad ed3d 2889 e83d 5773 ef3d f6e4 983d
00000060: ffb4 a6bd a8f7 a6bd 1296 a63d 63d2 62bc
00000070: a815 f13c a5fd f4bd f788 923d 04b2 1cbc
00000080: 0e46 cfbb 8274 fbbd 9a71 eabc 0f2f 9d3d
00000090: 99b6 273c 1620 b0bd 9964 d5bd 8a54 013e
000000a0: c16d fe3d 6110 f23b 6d52 953d be11 3c3d
000000b0: f104 963d 4eda 00be 6d0d d0bc 0a52 b2bd
000000c0: 2d70 bebd f09b 58bd 1d8b 4b3d 0763 dd3d
000000d0: 8304 073e 0246 d13d 73bb b5bc a0e7 bd3d
000000e0: 3e5e 1b3d 26c6 98bd eba7 aabc e727 87bd
000000f0: e94c b43d 20a5 fc3d 52ae a93d e073 36bd
00000100: 44f4 b83d 2300 d4bb 4d64 553d 5b1f 383c
00000110: 0feb dd3d dc95 253d 12a7 893d c28c e8bd
00000120: 691f 77bd bbf4 aabd fab2 ce3d 867e ebbd
00000130: 2ce8 06be 443c e23d 40ca a5bd e92d c6bd
00000140: 379a 34be 74e8 a1bd f24b 743d 4f79 933d
00000150: e93f 09bd ee73 ed3d 11a7 e43d a331 9ebd
00000160: 1b45 b33d 3df5 52bd 0014 513d 8c5a 163c
00000170: a540 f4bc cb65 64bd dbd3 b13d 9ecd 433d
00000180: 293d 493d 0a41 8d3d e3d4 5fbc d173 9fbd
00000190: 3249 913d f15a 593d da7a 233d 96ea 653d
000001a0: acd4 813c 30b2 243d f0c3 efbd fcf2 b3bd
000001b0: a42e 96bd 0b6d bcbd cf8a e93d ffe3 3e3d
000001c0: 059c 323d 5660 9b3d 972a 523d 1711 a03d
000001d0: 794e 1ebe 6fd7 b83d 9e99 c13d a06e 8fbd
000001e0: 341a 02be 248f 463d 4f70 663e a349 9abd
000001f0: c2e3 a7bc 40d7 28bd 2008 eaba 6160 0abc
00000200: d18c dcbd cb1e 37bd 23d0 c0bc 4868 77bd
00000210: af7f 6b3d f344 d9bd c413 6cbc d622 e5bd
00000220: 4c42 b03d d719 b4bd 916f eabd 0582 e83d
00000230: f74c e03d e982 f63d 5aa1 773d 0302 9a3d
00000240: 9189 81bd 694d 3a3d 02c9 67bb d2d4 8bbd
00000250: ceb3 e4bc eccd 1cbd 38a4 f13d 78db cdbc
00000260: c5aa ebbd 44fb acbd a48b d2bd d9fc 9abd
00000270: 99e8 4a3d c29d 873c 3a58 943d a4d8 36bd
00000280: 6c43 ca3c c108 6fbd f74b 8abc 2f75 64bd
00000290: f5e3 1f3d 7581 a1bd d851 b4bd e08f 443d
000002a0: ab5c 85bd 807d 923d 190a d3bd 0ed5 9f3d
000002b0: f3f5 1f3c 85d2 333c f96a 943d 4da1 9d3d
000002c0: 2959 613d 3727 babd a29c d23d 5b59 48bd
000002d0: b8b3 a7bd 3edb c33d 675b d6bd eaa6 0b3c
000002e0: 8f01 70bd 26a9 783c a826 ba39 a7db eabb
000002f0: 2520 f43c 3671 9b3d 34bc cbbd 519f 96bb
00000300: 73a2 9f3d 062b 2dbd c6cb 31bd 9215 0ebd
00000310: c6b0 943d 6da5 db3c c031 4cba 03c7 3d3d
00000320: 4a2d b1bd d1c5 03be a295 9bbd b5c8 933d
00000330: 27bd 72bd 344f b33d 63f6 493d 92df 1bbd
00000340: 9a20 86bd 2682 f1bc 5630 db3c 642c c03d
00000350: 0c07 cd3d a035 3bbc a23c 8c3c 35ca 383d
00000360: 84e9 91bd afc4 b0bd 1d3e 79bd c2a5 8e3d
00000370: e354 b7bc 06f1 0ebd ecf3 5bbc 8065 333d
00000380: 4960 fd3d 661a bebd 7a87 d93d 9fd9 53bd
00000390: 0e6a d33d 590f a23c 79b9 913c 15fc 32bd
000003a0: 46e0 1e3d a660 003d 9577 dd3d b8db 0c3d
000003b0: bda4 e63c 4e03 9c3d 1e68 9d3d 5c76 c0bb
000003c0: d562 1c3e a86b 60bd f19f 9cbd 6e1f 523d
000003d0: 6de6 8a3c 18fb 00be 7167 bf3d 4c28 71bd
000003e0: d427 063d 4cf8 73bd c06c 8e3d b895 af3d
000003f0: 74ee 223d ce64 dd3d ed13 ce3d ff2a c6bd

conv2.lin_l.bias f4 [32]
0.09778434 -0.021248594 0.12301941 0.09291306 -0.04726968 -0.0653152 -0.038261987 0.037592
0.05822402 0.08690826 -0.003216372 0.010815132 0.11311559 -0.024408892 -0.038465545 0.022642279
0.07424437 -0.052480217 -0.062218007 -0.037802562 -0.11287123 0.043513335 -0.11944228 -0.0681891
0.06736667 -0.030192735 0.06881721 0.043168675 0.10004069 -0.05498205 -0.120221816 -0.074891694
00000000: 2843 c83d 8811 aebc 9af1 fb3d 3449 be3d
00000010: da9d 41bd fac3 85bd 9ab8 1cbd 12fa 193d
00000020: 4f7c 6e3d f5fc b13d c5c9 52bb f431 313c
00000030: 25a9 e73d 28f5 c7bc 0c8e 1dbd 4d7c b93c
00000040: 6f0d 983d 7ff5 56bd 4fd8 7ebd dcd6 1abd
00000050: 0829 e7bd 0a3b 323d 279e f4bd baa6 8bbd
00000060: 89f7 893d c156 f7bc 0af0 8c3d a3d1 303d
00000070: 22e2 cc3d dc34 61bd db36 f6bd d160 99bd

conv2.lin_r.weight f4 [32, 64]
0.09484195 0.111330576 0.011829202 0.017046083 -0.09703325 -0.082349546 0.10356904 0.07207278
0.10651865 0.070330545 -0.14053744 -0.0652882 0.10790168 0.075023256 -0.04224349 0.05811189
0.011033531 -0.029857142 0.07352931 -0.013278618 -0.04562214 0.020489082 -0.032682903 -0.10182722
-0.0145096425 0.0056072827 0.12963553 0.11443801 0.085507005 0.106627524 0.102871396 -0.10278996
0.07751075 0.019841868 0.016226528 0.07175282 0.09422858 -0.074778594 -0.05155075 0.03717937
-0.036643267 0.098231375 -0.011855494 0.03879967 0.04121159 0.1239716 -0.029387634 -0.0025197612
-0.06672208 -0.031619508 0.09891401 0.07798349 0.103684515 0.019971477 -0.04146654 -0.05709384
-0.042324252 0.00096302986 -0.15811542 -0.11521614 0.039002705 -0.03582026 -0.14337598 -0.090536974
-0.003610145 0.08542708 -0.093865424 0.065859206 0.03663246 -0.027453505 0.058737345 -0.006956884
-0.030684358 0.015203494 -0.090855055 0.11916686 -0.00927972 0.0037680436 0.082447775 0.0039925636
-0.11811808 0.052219674 0.1157986 -0.05476027 0.08685941 0.11767265 -0.060696963 0.030405086
0.020415274 0.08394712 -0.062515676 -0.020926151 0.08480372 -0.08752504 0.038105037 -0.03636826
0.0128237195 -0.03820199 0.12448129 0.04213306 0.0020784433 0.112711385 0.0627209 -0.07548494
-0.07255064 -0.13073501 -0.095024854 0.018104868 0.04324342 0.050674684 0.08534098 -0.07004317
-0.06593292 -0.013822223 -0.06589443 0.05209147 -0.13974825 0.10367647 0.0841763 -0.0529858
0.015723264 0.044235688 0.06307671 -0.053546548 0.020059165 -0.011822119 -0.037495278 -0.06800459
-0.06767388 0.04523789 -0.008840166 -0.05885709 0.075097665 -0.04060446 -0.055767354 0.047257163
-0.04956202 -0.031006532 0.08775463 0.083459064 -0.07415598 -0.08578851 0.10485455 -0.012277422
-0.060379997 -0.09001074 -0.040126674 -0.099293455 -0.12312832 -0.10080068 -0.04966341 -0.017586907
-0.10227 -0.07530972 -0.10259446 -0.112195626 -0.046882063 0.08049466 0.028869 0.13961014
0.043618444 -0.11276712 0.08753868 0.053726047 0.06809514 0.12485649 0.123269685 -0.08777099
0.06731086 -0.061003596 -0.08139205 0.07726852 0.122188374 0.0096839145 -0.14574601 -0.07048647
0.035436355 -0.034673344 -0.06748361 0.045472898 -0.05902145 0.07523157 0.027852027 -0.037192453
0.086123146 -0.060032897 -0.054475132 0.019521063 -0.08748957 0.090828195 -0.032705605 -0.10426063
0.09740311 -0.09701022 -0.11995067 -0.035030406 0.050011646 0.091943935 -0.049633503 0.08687667
0.051262736 0.066399336 0.056688022 -0.07328568 0.09497688 -0.11200271 -0.026921002 -0.09403691
-0.047183953 0.062486142 0.12976608 0.031932767 0.065787226 0.07183516 -0.106892765 0.0065130773
0.018954938 -0.13913563 0.013803926 -0.12095092 -0.09593331 -0.07181937 0.045341827 0.20471992
0.036347125 -0.026944317 0.016262997 0.09034714 -0.111775815 -0.0737333 -0.022682821 0.071807444
0.10719345 -0.004226898 0.075638115 0.06024739 -0.043674886 -0.047196634 -0.03557689 0.07759387
-0.014926267 0.020249229 -0.08177884 -0.03178197 0.11957286 0.09697994 0.099240534 -0.046624344
0.0050215316 0.10377819 0.039791256 -0.1060602 0.038312126 -0.077224106 -0.09332754 -0.09690208
00000000: 7f3c c23d 4901 e43d 45cf 413c 3aa4 8b3c
00000010: 5eb9 c6bd e1a6 a8bd 011c d43d e59a 933d
00000020: 7326 da3d 7609 903d 0ce9 0fbe d2b5 85bd
00000030: 8efb dc3d cba5 993d 8307 2dbd bc06 6e3d
00000040: fcc5 343c f796 f4bc 8996 963d 908e 59bc
00000050: 48de 3abd b8d8 a73c 82de 05bd ca8a d0bd
00000060: dab9 6dbc 4cbd b73b 2dbf 043e 7a5e ea3d
00000070: 4c1e af3d 885f da3d 3dae d23d 8b83 d2bd
00000080: f5bd 9e3d 6a8b a23c 7fed 843c 24f3 923d
00000090: eafa c03d 8525 99bd e126 53bd 6549 183d
000000a0: 4017 16bd 882d c93d 8c3d 42bc 67ec 1e3d
000000b0: 7ccd 283d d2e4 fd3d 56be f0bc 9422 25bb
000000c0: 96a5 88bd 7583 01bd 6e93 ca3d cfb5 9f3d
000000d0: 8c58 d43d 399b a33c d2d8 29bd 3bdb 69bd
000000e0: 325c 2dbd d773 7c3a 02e9 21be 71f6 ebbd
000000f0: 4dc1 1f3d 44b8 12bd 27d1 12be 736b b9bd
00000100: 2f98 6cbb 65f4 ae3d 843c c0bd 31e1 863d
00000110: eb0b 163d 2ce6 e0bc 9296 703d 93f6 e3bb
00000120: c35d fbbc 1318 793c 3712 babd c10d f43d
00000130: f709 18bc 48f1 763b 61da a83d 0dd4 823b
00000140: e4e7 f1bd 4ce4 553d d127 ed3d 4e4c 60bd
00000150: 59e3 b13d 5cfe f03d 619d 78bd 1614 f93c
00000160: ef3d a73c 78ec ab3d 3808 80bd 526d abbc
00000170: 93ad ad3d 5440 b3bd 0714 1c3d e2f6 14bd
00000180: 941a 523c b179 1cbd 0cf0 fe3d b793 2c3d
00000190: 7e36 083b 3ad5 e63d d173 803d d997 9abd
000001a0: 6e95 94bd 66df 05be 649c c2bd a950 943c
000001b0: 0320 313d 4290 4f3d 40c7 ae3d cb72 8fbd
000001c0: d707 87bd 9b76 62bc a9f3 86bd de5d 553d
000001d0: 2a1a 0fbe 5454 d43d a064 ac3d a307 59bd
000001e0: 13ce 803c 7b30 353d 5d2e 813d a053 5bbd
000001f0: 1e53 a43c 90b1 41bc a694 19bd fe45 8bbd
00000200: 9a98 8abd 5e4b 393d 58d6 10bc 2214 71bd
00000210: cecc 993d dd50 26bd 4f6c 64bd ba90 413d
00000220: 8b01 4bbd 6901 febc b3b8 b33d 96ec aa3d
00000230: 17df 97bd e3b1 afbd fbbd d63d 3d27 49bc
00000240: 0451 77bd 8d57 b8bd de5b 24bd 5e5a cbbd
00000250: b32a fcbd 9670 cebd dc6b 4bbd 6b12 90bc
00000260: ef72 d1bd fc3b 9abd 0b1d d2bd d2c6 e5bd
00000270: 6807 40bd 62da a43d ae7e ec3c f6f5 0e3e
00000280: 41a9 323d 73f2 e6bd 7b47 b33d d80f 5c3d
00000290: 7775 8b3d c2b4 ff3d d174 fc3d 47c1 b3bd
000002a0: 47da 893d e8de 79bd e0b0 a6bd f53e 9e3d
000002b0: e63d fa3d 48a9 1e3c 713e 15be 365b 90bd
000002c0: b625 113d a305 0ebd d934 8abd ca41 3a3d
000002d0: 7ac0 71bd 0213 9a3d ef29 e43c 1d57 18bd
000002e0: 5561 b03d 0ee5 75bd 5121 5fbd a3ea 9f3c
000002f0: bb2d b3bd 2204 ba3d 50f6 05bd 9986 d5bd
00000300: 487b c73d 4bad c6bd b2a8 f5bd 0b7c 0fbd
00000310: 03d9 4c3d 1a4d bc3d 804c 4bbd 65ec b13d
00000320: e0f8 513d 60fc 873d b331 683d cd16 96bd
00000330: 3d83 c23d ad61 e5bd 6f89 dcbc 6c96 c0bd
00000340: f643 41bd 78f1 7f3d 66e1 043e efcb 023d
00000350: 74bb 863d 501e 933d 98ea dabd a76b d53b
00000360: 6347 9b3c 9279 0ebe dd29 623c 1eb5 f7bd
00000370: af78 c4bd 0916 93bd 5ab8 393d 19a2 513e
00000380: b9e0 143d 54ba dcbc fa39 853c ec07 b93d
00000390: b8ea e4bd 7c01 97bd 53d1 b9bc c80f 933d
000003a0: 3d88 db3d ca81 8abb 28e8 9a3d f8c5 763d
000003b0: 70e4 32bd 4251 41bd 13b9 11bd 89e9 9e3d
000003c0: 4d8d 74bc b6e1 a53c aa7b a7bd d02d 02bd
000003d0: 9ee2 f43d 6b9d c63d 9f3e cb3d 2bf9 3ebd
000003e0: a98b a43b a989 d43d 28fc 223d 1736 d9bd
000003f0: 2ded 1c3d ac27 9ebd 8222 bfbd 9974 c6bd

fc.weight f4 [1, 64]
0.048758365 -0.06961165 0.013759396 -0.13370414 0.078288525 0.10935124 -0.11390476 0.08417183
-0.09885586 -0.096458994 -0.03987316 0.032652587 0.005785389 -0.016153002 -0.05047518 -0.0077190376
-0.064094916 -0.03970846 -0.11107885 0.05897757 -0.061531622 0.061497875 -0.09628789 0.010838409
0.009315179 0.031110976 0.013840841 -0.013224127 0.060503736 0.07775759 0.05900576 0.011268634
-0.020195022 0.11712081 0.051723603 0.012398201 0.032608487 -0.07942793 -0.10352353 -0.031061737
0.05172551 0.11484657 -0.08937688 0.06719232 -0.0024873249 -0.0018419194 -0.0018158274 0.08925559
-0.032252796 -0.11320993 -0.040151477 0.09945367 0.10476911 0.035774965 -0.04959129 0.022388136
-0.0859279 -0.09616832 0.10118811 -0.03549926 -0.036602616 -0.040981032 0.10736299 0.0847947
00000000: dab6 473d 8e90 8ebd 176f 613c bde9 08be
00000010: bc55 a03d 8bf3 df3d e646 e9bd 4862 ac3d
00000020: f174 cabd 4b8c c5bd 0a52 23bd b8be 053d
00000030: 5c93 bd3b 4d53 84bc 10bf 4ebd fbef fcbb
00000040: 3244 83bd 57a5 22bd 4f7d e3bd 7792 713d
00000050: 9508 7cbd 32e5 7b3d 9632 c5bd 9593 313c
00000060: b19e 183c 72dc fe3c b2c4 623c 02aa 58bc
00000070: c4d2 773d 5f3f 9f3d 06b0 713d 14a0 383c
00000080: 0870 a5bc 09dd ef3d 21dc 533d d321 4b3c
00000090: 7a90 053d 1cab a2bd 2504 d4bd 2f75 febc
000000a0: 21de 533d ae34 eb3d 3a0b b7bd 219c 893d
000000b0: 6302 23bb 8f6c f1ba 0f01 eeba a3cb b63d
000000c0: 821b 04bd 9cda e7bd e075 24bd 5eae cb3d
000000d0: 3091 d63d c588 123d 3d20 4bbd 5367 b73c
000000e0: f8fa afbd e5f3 c4bd b63b cf3d ac67 11bd
000000f0: a0ec 15bd badb 27bd 21e1 db3d d8a8 ad3d
