uniRecommendation/recommendation/DataProcessing/model_weights.pth (torch, 52680 bytes, 7 tensors)

conv1.lin_l.weight f4 [64, 63]
0	0xbd933150	-0.0718714
1	0x3cfd8b43	0.030950194
2	0xbde89c79	-0.1135797
3	0xbdf2f23d	-0.118626095
4	0xbd206543	-0.03915907
5	0x3d33c671	0.04389042
6	0xbccf0d4b	-0.025274893
7	0xbd9593cf	-0.07303583
8	0x3dc4b1b2	0.09604205
9	0xbde99b6c	-0.114065975
10	0xbd031bf1	-0.03200907
11	0xbde33458	-0.11093968
12	0xbca770db	-0.020439556
13	0xbd33f625	-0.043935914
14	0x3d4e62f6	0.050387345
15	0xbb3d670c	-0.0028900532
16	0xbc431a4e	-0.011908127
17	0x3cf4d242	0.029885415
18	0x3d7bce58	0.06147608
19	0xbb0e76cd	-0.0021738291
20	0x3c0d75f9	0.008634084
21	0xbd0d9107	-0.034562137
22	0x3d043d75	0.032285172
23	0x3dc7d929	0.09758217
24	0xbd9b0631	-0.0756954
25	0xbbb7dc6b	-0.0056109927
26	0x3dffd3c5	0.12491564
27	0xbd950663	-0.07276609
28	0xbd04059d	-0.032231916
29	0xbd184576	-0.037175618
30	0xbdb89a99	-0.09013862
31	0x3ddf3f3c	0.10900733
32	0xbda1717a	-0.07882972
33	0x3c2cb97f	0.010542273
34	0xbdf24069	-0.118286915
35	0x3db388bd	0.08766315
36	0x3d27a4f0	0.04092878
37	0x3c734371	0.014847622
38	0xbd17691f	-0.036965486
39	0xbd5f00e7	-0.05444422
40	0xbd585d2e	-0.052823238
41	0xbd13174f	-0.0359109
42	0xbde9c6a4	-0.11414841
43	0xbdfa6b1b	-0.1222746
44	0x3da269ef	0.079303615
45	0x3d3491d3	0.04408438
46	0xbdcbf296	-0.09958379
47	0xbdd15dee	-0.10222994
48	0xbe005c3f	-0.12535189
49	0xbd93ab5a	-0.07210417
50	0xbd848ddb	-0.06472369
51	0x3df0b001	0.1175232
52	0xbadb4d54	-0.001673142
53	0xbd6f3a0a	-0.05840496
54	0xbd238e36	-0.039930545
55	0xbde72f75	-0.112883486
56	0xbd0876f5	-0.03331657
57	0x3d6b5a16	0.05745896
58	0xbdff3669	-0.1246155
59	0xbcddeeb5	-0.027091363
60	0x3cfc30f6	0.030785065
61	0xbd051091	-0.032486502
62	0x3dd393da	0.10330935
63	0x3d3a1f9c	0.0454403
64	0x3c2d938f	0.010594263
65	0x3c8e2297	0.017350478
66	0xbd8ae9f8	-0.06782907
67	0xbc38bb9f	-0.011275201
68	0x3d84e259	0.06488485
69	0x3d627e42	0.05529619
70	0x3c4122f2	0.011788117
71	0x3dc60fcd	0.096709825
72	0x3d2431fb	0.040086728
73	0x3d8f8757	0.07008236
74	0xbd6a629a	-0.05722294
75	0x3dacffbf	0.08447217
76	0x3b8f5356	0.004373948
77	0xbd250770	-0.040290296
78	0xbd3f9623	-0.04677404
79	0x3dd80983	0.10548689
80	0x3e06c7eb	0.131622
81	0x3d98439e	0.07434772
82	0xbd9176aa	-0.071027115
83	0x3db81381	0.08988095
84	0xbd94da28	-0.072681725
85	0xbda09c9b	-0.0784237
86	0x3ca22eac	0.019797646
87	0xbb13785a	-0.0022502155
88	0xbdacfab0	-0.08446252
89	0xbd554199	-0.052064512
90	0x3c496a7b	0.012293453
91	0x3d0969a0	0.033547997
92	0xbb27153b	-0.0025494832
93	0x3da101a8	0.07861644
94	0xbda7876e	-0.08180128
95	0x3d8e66dd	0.06953213
96	0xbd3ae635	-0.0456297
97	0x3d803fac	0.062621444
98	0xbd90b270	-0.07065284
99	0xbdfc6545	-0.12324003
100	0xbe00eaa3	-0.12589507
101	0x3da51bf5	0.08061973
102	0x3d0c24c8	0.034214765
103	0x3db63925	0.08897618
104	0xbdf5e4e3	-0.12006547
105	0x3d0a90f1	0.033829633
106	0x3da14994	0.07875362
107	0xbd7897a0	-0.060691476
108	0xbd586fdc	-0.052841052
109	0x3d4fb751	0.050711934
110	0x3d705cdb	0.058682304
111	0xbdfe1f75	-0.12408344
112	0x3dbd0a11	0.09230436
113	0xbc9c2309	-0.019059675
114	0x3d000900	0.031258583
115	0xbdc81ed1	-0.09771503
116	0x3dd1e22f	0.10248219
117	0xbdd19d4f	-0.10235082
118	0xbde55357	-0.111975364
119	0x3d852e3b	0.065029584
120	0xbde2985d	-0.11064217
121	0xbdc03ead	-0.093869545
122	0x3df63fbe	0.120238766
123	0xbd9b44fb	-0.07581516
124	0x3d370c3d	0.044689406
125	0xbdc3e531	-0.09565199
126	0xbd324c68	-0.043529898
127	0x3e160f01	0.14654161
128	0x3d806ab0	0.06270349
129	0xbe004021	-0.12524463
130	0x3dfc28ec	0.12312493
131	0xbe165c17	-0.14683567
132	0xbd50c7a2	-0.050971635
133	0x3ddabbb1	0.106803305
134	0xbd090338	-0.033450335
135	0x3e12079e	0.14260718
136	0xbc991e69	-0.018691259
137	0xbb2d7a30	-0.0026470535
138	0xbdcd2ae7	-0.100179486
139	0xbe50d49f	-0.20393609
140	0xbd81af57	-0.063322715
141	0x3dc1ac5f	0.09456705
142	0xbd93ecb3	-0.07222881
143	0xbd731565	-0.059346575
144	0xbb72587e	-0.0036979015
145	0x3c3f42e6	0.011673665
146	0xbdcab45d	-0.09897683
147	0x3da4342f	0.08017766
148	0x3d702c48	0.05863598
149	0xbc94144b	-0.018076083
150	0xbcf925a1	-0.03041345
151	0x3dd29718	0.10282725
152	0x3df6d1d7	0.120517425
153	0xbd8fee8b	-0.0702792
154	0x3d78bb40	0.06072545
155	0xbcac813e	-0.021057721
156	0x3c328675	0.010896315
157	0xbdd80df7	-0.105495386
158	0x3df202bb	0.11816927
159	0xbd83e28b	-0.06439694
160	0x3cf0cd78	0.02939485
161	0xbdafdde8	-0.08587247
162	0x3d1a1ee8	0.03762713
163	0x3b4a394a	0.00308569
164	0xbdefbba4	-0.117057115
165	0xbba0a712	-0.004902729
166	0x3d49f3df	0.04930484
167	0x3d507c45	0.050899763
168	0x3db9cae8	0.090719044
169	0x3ddc9e65	0.10772399
170	0x3db2c9f2	0.08729924
171	0xbdc288f8	-0.09498781
172	0x3cbe8d0a	0.023260612
173	0xbc9b15ca	-0.018931288
174	0xbd20c2b9	-0.039248202
175	0x3d6caef7	0.057784047
176	0x3def9a94	0.11699405
177	0x3d7bec14	0.06150444
178	0xbdac5e32	-0.08416404
179	0xbc6fc41b	-0.0146341575
180	0xbdf46f47	-0.11935287
181	0xbde5df27	-0.112242036
182	0x3d415c83	0.047207367
183	0xbd171533	-0.03688545
184	0x3d9ecb77	0.077536516
185	0x3da631b8	0.08114952
186	0x3b0970f7	0.0020971873
187	0x3c8ee224	0.017441817
188	0xbd7b39f2	-0.061334558
189	0xbc26287e	-0.01014149
190	0x3d1ed6f3	0.03877921
191	0x3e0c29c1	0.13687803
192	0xbdc6f6dd	-0.09715054
193	0x3de303d6	0.11084716
194	0x3b0ced33	0.0021503686
195	0x3db81b1e	0.08989547
196	0x3c874891	0.016514095
197	0xbdb7d371	-0.08975876
198	0xbc85b4f5	-0.016321639
199	0x3dd67678	0.10471815
200	0xbdceef7c	-0.10104272
201	0xbd734cb5	-0.059399325
202	0x3d0cfe84	0.034422413
203	0xbc7b56e4	-0.015340541
204	0x3d64607e	0.055756085
205	0x3d3d3d9c	0.046201333
206	0x3d2b7bbb	0.041866045
207	0x3c1e858c	0.009675395
208	0xbd8b3e88	-0.06799036
209	0xbcb89724	-0.022533007
210	0x3d01a1fd	0.031648625
211	0xbd541040	-0.05177331
212	0x3d98657a	0.0744123
213	0x3d256930	0.040383518
214	0x3d003925	0.031304497
215	0xbc837f2f	-0.016051857
216	0xbda3235f	-0.07965731
217	0x3d8baa82	0.06819631
218	0xbd8a92b3	-0.06766262
219	0x3b962c88	0.0045829453
220	0x3d8859a8	0.066577256
221	0x3d83e0b5	0.06439344
222	0x3c55bac4	0.013045017
223	0xbc9fe7ba	-0.019519676
224	0x3ccac53b	0.02475225
225	0x3dcca316	0.09992044
226	0xbd6e7567	-0.058217432
227	0x3d30d71a	0.043173887
228	0xbdb1daa8	-0.086842835
229	0x3d053367	0.032519724
230	0x3dde5f43	0.108580135
231	0xb9977419	-0.00028887464
232	0x3dd85b04	0.10564235
233	0xbd1869ae	-0.03721016
234	0xbc837b68	-0.016050056
235	0x3c7edf50	0.015556172
236	0xbda6e4d2	-0.08149113
237	0x3d71b74a	0.05901269
238	0xbcc78769	-0.02435656
239	0x3de0b56c	0.109721035
240	0xbd616b75	-0.05503412
241	0xbb6b34c3	-0.0035889603
242	0x3d1e7f2e	0.038695507
243	0x3dadb716	0.084821865
244	0x3db5abf6	0.088706896
245	0xbd9d0367	-0.076666646
246	0x3c0f353b	0.0087407185
247	0x3bde758b	0.0067889146
248	0x3dd17bcc	0.102286905
249	0xbcbbb2f0	-0.022912472
250	0xbd28cfdc	-0.041213855
251	0xbb29e057	-0.002592107
252	0x3e029814	0.12753326
253	0x3c49da1f	0.0123200705
254	0x3c0c4416	0.008561155
255	0xbda8b552	-0.08237709

conv1.lin_l.bias f4 [64]
0	0x3de1c2c0	0.11023474
1	0xbcaaa180	-0.020828962
2	0xbdacb07a	-0.08432098
3	0x3dc5d301	0.096593864
4	0x3c90bf2a	0.01766928
5	0x3c39b31a	0.011334205
6	0x3c26e19f	0.010185628
7	0x3c7c22aa	0.015389124
8	0xbbc13de1	-0.005897269
9	0x3db179a1	0.08665777
10	0xb94c400f	-0.0001947882
11	0x3ce5be62	0.028044883
12	0xbcfe52ba	-0.031045306
13	0x3d72ad3f	0.05924725
14	0xbd41ae64	-0.047285452
15	0x3dd40f49	0.10354478
16	0xbc9dd4c0	-0.019266486
17	0xbdba78b1	-0.09105051
18	0xbd4a675b	-0.049414974
19	0x3dfb954f	0.12284338
20	0x3dbfdb14	0.09367958
21	0x3d8bde1e	0.06829475
22	0x3dd97321	0.10617662
23	0x3e12d811	0.14340235
24	0xbd9eec35	-0.07759897
25	0x3d14ff9f	0.03637659
26	0x3d527b8e	0.051387362
27	0x3c118c08	0.008883484
28	0x3de93795	0.113875546
29	0xbd903c7b	-0.07042786
30	0xbe03150c	-0.12800997
31	0xbcae99e3	-0.021313613
32	0xbcfa8de9	-0.030585246
33	0x3d36e094	0.04464777
34	0xbd59ff6f	-0.053222116
35	0xbdb4e664	-0.08833006
36	0x3c2846f2	0.010270821
37	0x3d184d0b	0.03718285
38	0x3b57edda	0.0032948167
39	0x3ddf52b0	0.10904443
40	0x3d9279ee	0.071521625
41	0xbdafd538	-0.0858559
42	0x3dd6b52f	0.10483777
43	0xbdb2592d	-0.08708415
44	0x3db6aaf8	0.089193285
45	0xbc65cfdd	-0.014026609
46	0x3d32ce65	0.043653864
47	0x3cc09915	0.023510495
48	0x3d93e0fc	0.07220647
49	0xbd937fbe	-0.07202099
50	0x3d854c87	0.06508737
51	0xbd831814	-0.06401077
52	0xbd788ffb	-0.060684185
53	0xbe0d7dc6	-0.1381751
54	0xbdd7eb1d	-0.10542891
55	0x3cb34b72	0.021886561
56	0x3dc9e8c0	0.09858847
57	0xbd5ff2ee	-0.054675035
58	0xbd0e26c1	-0.034704927
59	0xbdbfa2d6	-0.0935723
60	0x3ddc3156	0.107515976
61	0xbd56e9d5	-0.052469093
62	0x3d478fbc	0.04872106
63	0xbdac5a34	-0.084156424

conv1.lin_r.weight f4 [64, 63]
0	0x3e04b492	0.12959507
1	0x3dc39a79	0.09550948
2	0xbda37cf8	-0.0798282
3	0x3dc4796b	0.09593471
4	0xbd8621f0	-0.06549442
5	0xbcce7e7b	-0.025206795
6	0xbd199fc8	-0.037505895
7	0x3d25ff77	0.040526833
8	0xbdae3ecf	-0.085080735
9	0x3dd26c8f	0.10274612
10	0x3df6517e	0.12027262
11	0xbc863e24	-0.016387053
12	0xbe0caa08	-0.13736737
13	0x3d457106	0.04820349
14	0x3db4d24a	0.08829172
15	0x3dafec83	0.08590033
16	0xbd323e17	-0.043516245
17	0xbdf008f4	-0.11720458
18	0x3cd4b232	0.025963876
19	0xbae5f55e	-0.0017544439
20	0x3d47055a	0.048589088
21	0xbdd3e2bc	-0.103459805
22	0xbd4d9cb0	-0.050198257
23	0x3d0f91e5	0.035051245
24	0x3dbcd569	0.09220392
25	0xbd3949a9	-0.045236263
26	0xbdd05e87	-0.1017428
27	0xbdba2c3c	-0.09090468
28	0xbd2e5e0b	-0.042570155
29	0x3da63f90	0.08117592
30	0xbdd5b437	-0.10434764
31	0x3c4dbefc	0.012557741
32	0x3d1f385e	0.038872115
33	0x3c08cc7d	0.008349535
34	0xbcec9d57	-0.02888362
35	0x3dd9aaf0	0.10628307
36	0xbd6e18c9	-0.058129106
37	0x3d95100e	0.07278453
38	0x3daa3c54	0.08312288
39	0x3d1207c2	0.03565193
40	0xbd8fd1ab	-0.07022413
41	0x3ddb8c1f	0.10720085
42	0xbd80fbaf	-0.06298005
43	0xbdfcfc8d	-0.12352858
44	0x3d8def95	0.06930462
45	0xbdbe3096	-0.09286611
46	0xbdfdc8a9	-0.123917885
47	0x3d827451	0.06369842
48	0xbc3fb175	-0.011700024
49	0xbd836c90	-0.06417191
50	0x3d278f30	0.04090804
51	0x3db531fb	0.08847424
52	0x3db5ab7d	0.088705994
53	0xbdda2fa9	-0.10653622
54	0x3d3a9373	0.045550775
55	0xbcad9c1e	-0.021192607
56	0xbd2ece00	-0.042676926
57	0xbd7a5eea	-0.061125673
58	0xbdee6702	-0.11640741
59	0xbcd6a849	-0.026203291
60	0x3de0d574	0.10978213
61	0x3dae2f94	0.085051686
62	0xbd7ee5b9	-0.0622308
63	0x3d4cc297	0.049990263
64	0x3db874d6	0.0900666
65	0xbcbd12eb	-0.02308031
66	0x3df1c0e0	0.11804366
67	0xbd862262	-0.06549527
68	0x3d2d5177	0.04231402
69	0x3dea83bc	0.114509076
70	0x3dde03b6	0.108405516
71	0xbdbedf07	-0.09319883
72	0x3d585b36	0.05282136
73	0x3d557958	0.052117676
74	0xbddf0490	-0.10889542
75	0x3ce2787c	0.027645342
76	0xbcb931cb	-0.022606751
77	0xbdf0495c	-0.11732742
78	0x3d96dc37	0.073662214
79	0xbde66fca	-0.11251791
80	0x3dd3d714	0.10343757
81	0xbdb36b25	-0.087606706
82	0xbc4f2c26	-0.012644803
83	0x3d467bac	0.048457786
84	0xbdc29bf2	-0.095024005
85	0xbcb1f519	-0.021723317
86	0xbd4a4681	-0.049383644
87	0x3dced5a2	0.10099341
88	0x3d907ef5	0.07055465
89	0x3d3c9608	0.04604152
90	0x3d5794d4	0.052632168
91	0x3dfa07f0	0.12208545
92	0xbdc973da	-0.0983655
93	0xbd3448a9	-0.044014607
94	0x3dac3f6e	0.08410536
95	0xbc8954d6	-0.016764086
96	0x3c1485f7	0.009065143
97	0xbdd739f8	-0.105091035
98	0x3d426146	0.04745605
99	0xbd9f684a	-0.077835634
100	0x3d6bd060	0.05757177
101	0xbd9a104d	-0.075226404
102	0xbdf53f7b	-0.119749986
103	0xbd852cc8	-0.06502682
104	0xbb43eee9	-0.002989704
105	0xbdf53728	-0.11973411
106	0x3ccbe8ed	0.024891341
107	0xba3cc0fe	-0.0007200389
108	0x3d82c1b7	0.063846044
109	0xbcfa5123	-0.030556267
110	0x3cb8a491	0.022539409
111	0xbd93a96a	-0.072100475
112	0xbcd0bd57	-0.02548091
113	0x3d80db02	0.062917724
114	0xbd8b3e23	-0.06798961
115	0x3d6df0bd	0.058090914
116	0xbd880265	-0.06641082
117	0x3d2acb22	0.04169763
118	0xbdff382b	-0.12461885
119	0xbc75958a	-0.014989266
120	0x3de561ba	0.112002805
121	0xbd01c20e	-0.031679206
122	0xbdd76961	-0.10518146
123	0x3dd4b9fb	0.103870355
124	0xbdedf65a	-0.116192535
125	0x3d24b271	0.040209237
126	0x3dfcfc86	0.123528525
127	0xbdb9a954	-0.090655
128	0x3cf1ad41	0.02950156
129	0xbcc973d4	-0.024591364
130	0x3c41286c	0.0117894225
131	0xbbe1ff31	-0.0068968763
132	0xbc07038d	-0.008240593
133	0x3d3906d4	0.045172527
134	0xbc04100d	-0.008060467
135	0x3d706248	0.05868748
136	0xbb74aad8	-0.0037333276
137	0xbd25630e	-0.04037767
138	0xbda71e92	-0.08160128
139	0xbcde29ec	-0.0271196
140	0x3def5e55	0.11687914
141	0xbda4225c	-0.08014366
142	0xbd99a231	-0.07501639
143	0xbd57d6da	-0.052695133
144	0x3d65f5ac	0.056142494
145	0xbd431166	-0.047624014
146	0x3d96869a	0.07349892
147	0x3b72ac82	0.0037029092
148	0x3d02838e	0.03186374
149	0x3cc0f3e5	0.023553798
150	0xbd081c16	-0.03322991
151	0xbd182223	-0.03714193
152	0x3d482294	0.0488611
153	0xbcfc2de8	-0.030783609
154	0x3d20a60c	0.039220855
155	0xbd2d3601	-0.04228783
156	0xbbe4c537	-0.0069815177
157	0xbb8165b0	-0.0039488897
158	0xbd933633	-0.07188072
159	0x3dab6572	0.083689585
160	0xbdb464b1	-0.08808268
161	0x3d404068	0.046936423
162	0xbdc78dc8	-0.097438395
163	0x3dcd2deb	0.10018524
164	0xbda775ad	-0.08176742
165	0xbdea1c3e	-0.11431168
166	0xbd9deccc	-0.07711181
167	0x3ded908a	0.11599834
168	0x3e0081ff	0.1254959
169	0x3d640a91	0.05567414
170	0xbdaa14f9	-0.083047815
171	0x3de7a52b	0.113108
172	0xbdf5caf9	-0.120016046
173	0x3e1f0577	0.15529428
174	0x3d4de433	0.050266456
175	0xbde33836	-0.11094706
176	0xbd635c6f	-0.055508073
177	0xbe007736	-0.12545475
178	0x3d2ef6d6	0.04271587
179	0x3dc60df7	0.09670632
180	0x3d8789f3	0.066181086
181	0xbdf2bb39	-0.11852116
182	0x3d6a9994	0.05727537
183	0x3d1b3629	0.037893448
184	0x3c3caf2a	0.011516372
185	0xbd41b10c	-0.047287986
186	0x3db4cc7b	0.08828064
187	0xbd8a3496	-0.06748311
188	0x3d73ff72	0.059569784
189	0x3ca80778	0.020511374
190	0x3e015fd5	0.12634213
191	0x3da2c81f	0.07948326
192	0xbd99ccbb	-0.07509752
193	0xbcb4a8d7	-0.022053165
194	0x3d3fa750	0.04679042
195	0x3c5b1dce	0.013373805
196	0x3d304d46	0.043042444
197	0x3db3c1a0	0.087771654
198	0xbdaedbf9	-0.0853805
199	0xbdd08e21	-0.10183359
200	0x3d93f297	0.07224005
201	0x3d86f292	0.06589235
202	0x3d977efc	0.07397267
203	0xbda3d245	-0.0799909
204	0x3be52981	0.006993473
205	0x3b5842ba	0.0032998757
206	0x3d79d4a1	0.060993794
207	0xbd33e54b	-0.043919843
208	0x3d67b03d	0.05656456
209	0x3d25c51c	0.04047118
210	0xbda15b42	-0.07878734
211	0x3d5445af	0.051824268
212	0xbd19ee02	-0.037580498
213	0x3d52e1e9	0.051484976
214	0xbdf545b2	-0.11976184
215	0xbc257cd7	-0.010100565
216	0xbdb0fd49	-0.0864206
217	0xbd837474	-0.06418696
218	0xbca27234	-0.019829847
219	0x3db3a5ab	0.08771833
220	0xbd66f924	-0.056389943
221	0xbc1ccaf2	-0.00956987
222	0xbdb8d25b	-0.09024497
223	0x3ce84712	0.028354201
224	0xbb1ed367	-0.0024234892
225	0xbdf12ecc	-0.11776504
226	0xbdf4fa24	-0.11961773
227	0xbdb4ebce	-0.08834039
228	0x3bb46e89	0.005506341
229	0xbdebe994	-0.11519161
230	0x3d4b2d07	0.04960349
231	0xbd3bddd6	-0.045865856
232	0x3d464976	0.0484099
233	0xbb32c1ab	-0.002727608
234	0x3dca6cb1	0.098840125
235	0xbdf48101	-0.11938668
236	0xbc8c542b	-0.017129978
237	0x3d8989d1	0.067157395
238	0xbd7594f1	-0.059956495
239	0x3cd95385	0.026529083
240	0x3d8c31a6	0.06845407
241	0x3d627a81	0.05529261
242	0xbd9581c1	-0.07300139
243	0x3da6c916	0.08143823
244	0xbca8f4f6	-0.020624619
245	0xbd296330	-0.04135436
246	0x3d187f82	0.037230976
247	0xbdc89916	-0.09794824
248	0x3d48d08e	0.04902702
249	0xbdfad7a9	-0.12248165
250	0x3d9aa1c7	0.07550388
251	0xbb27363d	-0.0025514506
252	0x3d8b7518	0.06809443
253	0x3dbbef74	0.091765314
254	0xbdc87322	-0.09787585
255	0xbd36060a	-0.044439353

conv2.lin_l.weight f4 [32, 64]
0	0xbd2f845f	-0.04285085
1	0x3c2119fe	0.009832857
2	0xbaa7e5b2	-0.0012809543
3	0x3d18507d	0.037186135
4	0xbd7c7579	-0.06163547
5	0x3dc4a20c	0.096012205
6	0xbe0d5a2e	-0.13803932
7	0x3ca5ad94	0.02022437
8	0xbd8f6b30	-0.07002866
9	0x3d8fb65d	0.07017205
10	0xbdd269d8	-0.10274094
11	0xbcfc2469	-0.03077908
12	0x3d9e6fd3	0.077361725
13	0x3d9f424f	0.07776319
14	0x3d8824d5	0.0664765
15	0xbd5b5d58	-0.053555816
16	0x3df56ebd	0.11984012
17	0x3e191008	0.14947522
18	0xbddc56f9	-0.10758776
19	0xbc93f0d0	-0.018059164
20	0x3c407cb1	0.011748479
21	0xbbd79615	-0.0065791705
22	0x3df4d6eb	0.11955055
23	0x3d08d342	0.033404596
24	0x3c246e84	0.010036115
25	0x3dcdf6ec	0.10056862
26	0xbc1e7700	-0.0096719265
27	0xbde7f322	-0.11325671
28	0x3d963aeb	0.073354565
29	0x3d1e5762	0.038657553
30	0xbdb96335	-0.09052125
31	0xbe3f16c4	-0.18661028
32	0x3d12943c	0.0357859
33	0x3ce69c62	0.028150741
34	0x3b28c772	0.0025753644
35	0xbb1315b8	-0.0022443365
36	0x3ddb71a1	0.10715032
37	0x3db7d566	0.089762494
38	0xbdcc42b7	-0.09973662
39	0x3dcf9f8e	0.101378545
40	0xbcc1a427	-0.023637844
41	0x3ddf2f4f	0.10897695
42	0x3db101aa	0.086428955
43	0xbd7678a2	-0.06017364
44	0x3da0007c	0.078125924
45	0x3c24b7aa	0.010053555
46	0xbd8aab1e	-0.06770919
47	0xbc03b1a7	-0.008037961
48	0x3db6364f	0.08897077
49	0xbd8b3f6d	-0.06799207
50	0xbdec5166	-0.11538963
51	0x397c122f	0.00024039367
52	0x3dfbe34b	0.12299212
53	0xbdddf3c6	-0.10837512
54	0x3db246bf	0.087049
55	0xbd605f64	-0.05477847
56	0x3cf6cbc7	0.030126465
57	0xba281cf4	-0.0006413006
58	0x3ca6c5ed	0.02035805
59	0xbdff3e80	-0.12463093
60	0x3ccdd130	0.025124162
61	0xbdeda7da	-0.11604281
62	0xbd1e79c0	-0.03869033
63	0x3d784098	0.060608476
64	0xbe118cee	-0.14213917
65	0xbab9e26c	-0.0014181859
66	0x3b855ebc	0.004070131
67	0x3ce5be80	0.028044939
68	0x3d6df52c	0.058095142
69	0xbd61deb3	-0.055144023
70	0xbd00386a	-0.0313038
71	0x3b24b0ce	0.0025129798
72	0xbd526f74	-0.05137582
73	0x3db2a4f6	0.0872287
74	0xbdade2f6	-0.08490555
75	0x3d8460bd	0.06463764
76	0x3dfda1b5	0.12384359
77	0x3dc20893	0.09474292
78	0xbd5c04ea	-0.053715624
79	0xbd8344d0	-0.06409609
80	0xbc85eaed	-0.016347373
81	0xbdbea2a7	-0.09308367
82	0xbdaa391e	-0.083116755
83	0xbd688541	-0.056767706
84	0x3dba61cf	0.09100687
85	0x3e027561	0.12740089
86	0xbd8ef1b8	-0.06979698
87	0xbd6cd897	-0.057823744
88	0xba98765f	-0.0011631957
89	0x3cdd3280	0.02700162
90	0xbdc04122	-0.09387423
91	0xbdc76507	-0.09736066
92	0x3daab499	0.083352275
93	0xbde4ba0c	-0.11168298
94	0xbcde5988	-0.027142301
95	0xbcb92368	-0.02259989
96	0xbd8132bc	-0.06308505
97	0x3e450cc4	0.19243151
98	0xbdb7f71b	-0.089826785
99	0xbd481050	-0.04884368
100	0x3c31252b	0.010812084
101	0xbdbda263	-0.092594884
102	0xbdb11ea7	-0.086484246
103	0x3d7b4087	0.061340835
104	0x3dbf4231	0.09338797
105	0xbd0efc0e	-0.034908347
106	0xbb747cd3	-0.0037305846
107	0xbdf65805	-0.12028507
108	0x3cfd03d1	0.030885609
109	0xbc901c76	-0.017591696
110	0xbce22bf5	-0.027608851
111	0xbd6eb979	-0.05828235
112	0x3d960219	0.07324619
113	0xbce3544d	-0.027750159
114	0xbc8c1719	-0.017100858
115	0x3da34e4e	0.0797392
116	0xbd52ad99	-0.051435087
117	0xbcaada44	-0.02085603
118	0x3e0c862b	0.13723056
119	0x3dc9454d	0.09827671
120	0x3d024d0c	0.03181176
121	0x3ce1443b	0.027498355
122	0x3da637cb	0.081161104
123	0xbd15f9bc	-0.03661512
124	0xbdcea57a	-0.10090156
125	0xbddb2906	-0.10701184
126	0xbd55fb00	-0.052241325
127	0xbd95a04a	-0.07305963
128	0x3d82881d	0.06373618
129	0xbd4545ae	-0.048162155
130	0xbe54e207	-0.20789348
131	0xbcc1c582	-0.02365375
132	0x3d8bdfd7	0.068298034
133	0xbddad2db	-0.10684749
134	0xbdd1abb1	-0.10237826
135	0xbdc0e660	-0.094189405
136	0xbcea3918	-0.028591678
137	0xbdfc152e	-0.12308727
138	0x3d011eef	0.03152364
139	0x3bc6b752	0.006064334
140	0x3daaf3c1	0.083472736
141	0x3d3b8d45	0.045789022
142	0x3d425cf1	0.047451917
143	0x3d5c025c	0.053713188
144	0x3c19b6b6	0.009381941
145	0xbda02368	-0.07819253
146	0xbde1b617	-0.11021059
147	0x3d5cbffa	0.05389402
148	0xbde10c6f	-0.109887
149	0x3d94d3f3	0.072669886
150	0xbcfac765	-0.030612657
151	0x3dc2a419	0.095039554
152	0x3df5e1a9	0.12005932
153	0xbdd3a15a	-0.1033351
154	0xbda88290	-0.08228028
155	0xbd9b4e40	-0.075832844
156	0x3dfe44a3	0.12415435
157	0xbd35b733	-0.044364166
158	0x39f75fb6	0.0004718282
159	0xbe1f05f8	-0.1552962
160	0xbde5fca1	-0.11229826
161	0xbd3865b8	-0.04501888
162	0x3d9e669d	0.07734416
163	0xbd8f7ff5	-0.07006828
164	0xbb3b0e07	-0.0028542296
165	0xbc1a3133	-0.009411144
166	0xbc911d4f	-0.01771417
167	0x3da56e90	0.08077729
168	0xbb91db54	-0.004451195
169	0xbda700bc	-0.08154437
170	0xbd83da34	-0.06438103
171	0xbdf14748	-0.11781174
172	0x3c7e438f	0.015519037
173	0xbdb7be2d	-0.0897182
174	0xbc7f50d3	-0.015583235
175	0x3db18d8e	0.086695775
176	0x3d50c281	0.050966743
177	0xbdcb0e65	-0.09914855
178	0x3be3e09e	0.0069542667
179	0xbd0235c9	-0.031789575
180	0xba06cdb2	-0.00051423453
181	0x3ddc5d2d	0.10759959
182	0x3d91213b	0.07086416
183	0x3ccde2ad	0.025132501
184	0x3d2c9459	0.042133663
185	0xbde1e1d4	-0.110294014
186	0xbd9dac70	-0.076989055
187	0xbdc20bd6	-0.09474914
188	0x3d2d2a38	0.04227659
189	0x3b193cc0	0.0023382157
190	0xbccae3e2	-0.024766866
191	0xbda47a90	-0.080311894
192	0x3e136730	0.14394832
193	0x3dd47f6a	0.10375865
194	0x3d59e236	0.053194247
195	0xbd8893bf	-0.06668805
196	0xbcbc0021	-0.02294928
197	0x3dcf50b5	0.101228155
198	0x3ccf182e	0.025280084
199	0xbd187a62	-0.03722609
200	0xbd4e35e4	-0.050344363
201	0xbcb707b7	-0.022342546
202	0xbdb43a37	-0.08800166
203	0xbdf9cb87	-0.12197023
204	0xbc83fe30	-0.016112417
205	0xbbc757f9	-0.006083485
206	0x3dbca11b	0.09210416
207	0xbd96dfc3	-0.07366898
208	0xbde51a30	-0.111866355
209	0xbc84ef5a	-0.016227413
210	0xbc83a1bd	-0.016068334
211	0xbd98a0d4	-0.074525505
212	0xbcc23901	-0.023708822
213	0xbd123abd	-0.03570055
214	0xbaa06675	-0.0012237566
215	0xbcfc6d1e	-0.03081375
216	0x3d7fd2bd	0.062456835
217	0xbd8596bb	-0.0652289
218	0xbd32b4a7	-0.043629315
219	0x3ba2260e	0.004948384
220	0xbd9d5c4f	-0.07683622
221	0xbcf76872	-0.03020117
222	0xbdfa9988	-0.12236315
223	0x3aa80290	0.0012818146
224	0xbdaa4661	-0.08314205
225	0xbde1b2f3	-0.1102046
226	0xbbf7d510	-0.007563241
227	0xbdc46fbb	-0.095916234
228	0x3dcde28c	0.10052976
229	0x3cbec9b4	0.023289539
230	0xbd95278c	-0.072829336
231	0x3ddaf892	0.10691942
232	0xbe59ad7d	-0.21257587
233	0xbc62c3b2	-0.013840603
234	0xbda11b1b	-0.07866498
235	0x3d428cce	0.047497563
236	0xbb25af55	-0.0025281508
237	0xbdbae8ee	-0.09126459
238	0x3df73727	0.12071066
239	0x3db42209	0.08795554
240	0x3d8c7e03	0.06859972
241	0xbdc4a43e	-0.09601639
242	0x3d858b88	0.06520754
243	0xbcd3f6f3	-0.02587459
244	0x3dacdbc8	0.084403574
245	0xbe048c54	-0.12944156
246	0xbc28d7e6	-0.01030538
247	0xbd173d1e	-0.03692352
248	0xbe022a31	-0.12711407
249	0x3cad20e2	0.021133844
250	0x3d2dbfec	0.04241936
251	0xbd190e30	-0.037367046
252	0xbd828af0	-0.063741565
253	0xbc114da0	-0.008868605
254	0xbd72bd32	-0.059262462
255	0x3de7c060	0.113159895

conv2.lin_l.bias f4 [32]
0	0x3c18184f	0.009283139
1	0xbdba48ca	-0.09095915
2	0xbde92cd4	-0.113855034
3	0x3deee9a8	0.1166566
4	0x3d4094c8	0.04701689
5	0xbdeeee38	-0.1166653
6	0x3ca0e8fa	0.019642342
7	0xbd63aa80	-0.055582523
8	0x3ce58324	0.028016634
9	0xbc5880ac	-0.0132142715
10	0x3df07a5c	0.11742088
11	0xbd03db24	-0.03219141
12	0xbc7b58cb	-0.015340994
13	0xbd9d35b3	-0.07676258
14	0xbdda3dd9	-0.10656328
15	0x3dfd2782	0.12361051
16	0xbd8912f8	-0.06693071
17	0x3d60efb7	0.05491611
18	0xbded3bfb	-0.11583706
19	0x3a2ee0ab	0.00066710514
20	0xbd0892cb	-0.033343118
21	0xbdf67af5	-0.12035171
22	0x3dae81ca	0.08520849
23	0x3d753998	0.05986938
24	0x3da4d6b9	0.080487676
25	0x3d1c1ee7	0.03811541
26	0xbd8f63b8	-0.07001442
27	0x3b3d6454	0.0028898912
28	0x3d9c406e	0.076294765
29	0xbdd2732d	-0.10275874
30	0x3d3a3d9f	0.045468923
31	0xbd30a24e	-0.043123536

conv2.lin_r.weight f4 [32, 64]
0	0xbceced8f	-0.02892187
1	0x3dd3fcd0	0.103509545
2	0x3db2e788	0.08735567
3	0xbda7128e	-0.08157836
4	0xbda2d4b7	-0.079507284
5	0x3dee1f70	0.1162709
6	0x3d3be467	0.04587212
7	0xbd0416d6	-0.03224834
8	0x3dabea24	0.08394268
9	0x3cfacd25	0.030615399
10	0x3d17fcd7	0.03710636
11	0xbd334afb	-0.04377268
12	0xbdb2c0d2	-0.08728184
13	0xbccf245e	-0.025285896
14	0x3dd10f4f	0.10207998
15	0x3d9edb0d	0.07756624
16	0xbb80c824	-0.0039301086
17	0x3dcb6d2b	0.099329315
18	0xbc41e668	-0.011834718
19	0x3d0d34c7	0.03447416
20	0xbdf2f555	-0.118631996
21	0xbd994fb0	-0.07485902
22	0x3d99af55	0.07504145
23	0xbdbd3330	-0.09238279
24	0xbd2d497b	-0.042306405
25	0x3bbf2dfa	0.0058343383
26	0xbd9bbd33	-0.07604446
27	0x3c051fcd	0.008125258
28	0x3d37c785	0.04486801
29	0xbdf4295c	-0.11921951
30	0xbdf815a6	-0.12113504
31	0xbcba023f	-0.02270615
32	0xbd8edbff	-0.06975555
33	0x3d99405e	0.0748298
34	0xbdc4a7dd	-0.0960233
35	0xbdb2f0a9	-0.087373085
36	0xbded92ae	-0.116002426
37	0x3dbfaa22	0.09358622
38	0xbc93d210	-0.018044502
39	0x3b80f8c3	0.0039359047
40	0x3d123427	0.035694268
41	0x3da84c9c	0.08217737
42	0x3d889e1b	0.06670781
43	0xbdc144b5	-0.09436933
44	0x3d13daed	0.036097456
45	0xbdd5af24	-0.10433796
46	0x3c8c2e5c	0.01711195
47	0xbdcc2a03	-0.099689506
48	0xbd8b59e3	-0.06804254
49	0xbdc005cb	-0.09376105
50	0xbd8528cf	-0.06501924
51	0x3ddbf90a	0.1074086
52	0xbd052a9b	-0.032511335
53	0x3cdb1fcb	0.026748559
54	0x3e050269	0.129892
55	0x3dc7fb3e	0.097647175
56	0xbe17c4a0	-0.148211
57	0x3d3f2574	0.046666577
58	0xbdd496f0	-0.103803515
59	0x3dbe0844	0.0927892
60	0xbd5c2914	-0.053750113
61	0xbde29358	-0.1106326
62	0x3c77d0da	0.015125478
63	0xbd82bb74	-0.0638341
64	0x3d5bc976	0.053658925
65	0xbde0557a	-0.10953803
66	0xbdb3e018	-0.08782977
67	0x3dd9b44b	0.10630091
68	0x3d7c2806	0.061561607
69	0x3c8d426b	0.017243585
70	0x3dc76c3c	0.09737441
71	0xbe0d075a	-0.13772336
72	0xbdf99f0a	-0.121885374
73	0xbd9beb1b	-0.07613202
74	0xbdcb84b0	-0.099374175
75	0x3d682ae9	0.056681547
76	0xbd91f2e9	-0.071264096
77	0x3daeb8fb	0.08531376
78	0x3d2850ec	0.041092798
79	0x3d31e979	0.043435548
80	0xbd970c77	-0.07375424
81	0xbe38b55a	-0.1803793
82	0xbd890231	-0.06689871
83	0xbcefa263	-0.029252237
84	0xbd5c60f0	-0.053803384
85	0x3db3865d	0.08765862
86	0xbc61ec1b	-0.013789202
87	0xbd90fe13	-0.07079711
88	0x3d230486	0.039799236
89	0x3d5da1af	0.05410927
90	0x3da60da4	0.081080705
91	0x3c5d3af8	0.013502829
92	0xbd310996	-0.043222032
93	0xbe0594d1	-0.1304505
94	0xbd1939bf	-0.037408587
95	0x3b474699	0.003040707
96	0x3dda6a31	0.10664786
97	0xbd707c7d	-0.05871247
98	0x3d9fa934	0.07795945
99	0x3d2e2057	0.04251131
100	0x3e116aa7	0.14200841
101	0x3dfe2978	0.12410253
102	0xbdef8dd0	-0.116969705
103	0xbd9341b3	-0.071902655
104	0x3cee15b5	0.029063085
105	0x3df86659	0.12128896
106	0x3c09d5c7	0.008412785
107	0xba217a4a	-0.0006159885
108	0xbda45771	-0.080244906
109	0x3d963c62	0.07335736
110	0xbdd75d96	-0.10515897
111	0xbd2ec89d	-0.04267179
112	0xbdf3284f	-0.11872923
113	0x3c9c9964	0.019116111
114	0xbd5e25af	-0.054235157
115	0x3d846ea4	0.064664155
116	0x3d4f038e	0.0505405
117	0xbddde694	-0.10834995
118	0xbd38673e	-0.045020334
119	0x3cc0286c	0.023456775
120	0x3dc826f1	0.097730525
121	0x3c0f6d57	0.008754096
122	0xbd02357e	-0.031789295
123	0x3d87ad4d	0.066248514
124	0x3caed580	0.02134204
125	0xbd731b50	-0.05935222
126	0xbdc4f9a4	-0.09617928
127	0xbd992baa	-0.074790314
128	0x3dc17528	0.09446174
129	0xbc0c82ec	-0.008576136
130	0x3dd8ed31	0.10592116
131	0x3c6c0d87	0.014407522
132	0xbc8f1c81	-0.017469646
133	0x3e01c3f6	0.1267241
134	0xbdb51c9d	-0.08843348
135	0xbc0611cb	-0.008182953
136	0x3de2eb24	0.11080006
137	0x3d23ea9c	0.040018663
138	0x3ba56929	0.0050479365
139	0xbdced6a9	-0.10099537
140	0x3d555a47	0.05208805
141	0xbd2d6f5a	-0.04234252
142	0xbc8e2437	-0.017351253
143	0xbd03a421	-0.032138947
144	0xbba595e9	-0.005053271
145	0xbae33619	-0.0017334848
146	0x3bf735af	0.0075442414
147	0xbd5e1698	-0.054220766
148	0xbd7a50e5	-0.061112303
149	0xbd9ec4b1	-0.0775236
150	0x3dc6ffcc	0.09716758
151	0x3d7e6b99	0.062114332
152	0x3d1399de	0.03603541
153	0xbc0f21aa	-0.0087360535
154	0x3dcc5c45	0.099785365
155	0x3dabe15c	0.08392593
156	0x3dc4090a	0.095720366
157	0xbdd534d9	-0.104104705
158	0xbdaa5841	-0.08317614
159	0x3dcf9d20	0.10137391
160	0x3d7f9805	0.062400836
161	0x3dbbe1ba	0.09173913
162	0x3defc0f9	0.117067285
163	0x3b0dbff3	0.0021629303
164	0x3d9c7ac5	0.07640604
165	0xbdf01ba9	-0.11724026
166	0xbd7551b6	-0.05989238
167	0x3d78db28	0.06075588
168	0x3de657b1	0.112471946
169	0xbdd34365	-0.10315589
170	0xba895b57	-0.0010479492
171	0x3df66cf2	0.120324984
172	0x3d161a74	0.03664632
173	0xbdb7f156	-0.08981578
174	0x3d935692	0.07194246
175	0x3d29e515	0.041478235
176	0xbd061dd8	-0.032743305
177	0x3dc0dbaa	0.094168976
178	0x3bc065c1	0.005871505
179	0xbdc58e88	-0.09646326
180	0x3c48b840	0.01225096
181	0xbd3ef58f	-0.0466209
182	0xbc516ad7	-0.01278182
183	0x3c6f5dd9	0.014609777
184	0xbd1f3a1c	-0.038873777
185	0x3d142456	0.036167465
186	0xbdcd3350	-0.10019553
187	0xbd99c0b0	-0.07507455
188	0xbb6e4a00	-0.0036360025
189	0x3baae080	0.0052147508
190	0x3daca0ac	0.08429083
191	0x3cfe17d8	0.031017229
192	0xbc8dc405	-0.017305383
193	0xbdb347f6	-0.0875396
194	0xbd8ba675	-0.068188585
195	0xbcadb40f	-0.021204023
196	0x3d9b69e4	0.075885564
197	0xbdb09ccc	-0.08623657
198	0x3d875a8f	0.066090696
199	0x3db8abce	0.09017144
200	0xbdf19d5e	-0.117975935
201	0xbcd8986f	-0.026439874
202	0x3debbf63	0.115111135
203	0xbda4f2cf	-0.080541246
204	0x3c1da5d3	0.009622055
205	0x3d25ae0b	0.040449183
206	0x3e137d08	0.14403164
207	0xbc9a4b0e	-0.018834617
208	0x3da519a4	0.08061531
209	0x3e5d499d	0.21610112
210	0x3d0ba18f	0.03408962
211	0x3ce11ad6	0.027478617
212	0x3d989aef	0.07451426
213	0x3bd68af9	0.0065473286
214	0x3d16f496	0.03685435
215	0xbc9c2346	-0.019059788
216	0x3db2a89d	0.08723567
217	0xbd887806	-0.06663518
218	0x3dbf9006	0.09353642
219	0x3de36eb4	0.11105099
220	0x3d9d286d	0.07673726
221	0x3d17fa7c	0.037104115
222	0xbbe8c83f	-0.0071039493
223	0xbdbb33b0	-0.09140718
224	0x3df8ebd3	0.12154355
225	0xbdec9658	-0.11552113
226	0x3ce0427b	0.02737545
227	0xbd9f31db	-0.07773181
228	0x3dc50064	0.09619215
229	0xbc82ddce	-0.015974905
230	0xbdbf6431	-0.09345282
231	0xbda4c390	-0.08045113
232	0x3d996416	0.07489793
233	0x3db01c0f	0.08599102
234	0x3d2d1108	0.04225257
235	0xbd39b499	-0.045338247
236	0x3dd52efd	0.10409353
237	0xbd27455e	-0.040837638
238	0xbd5f231b	-0.05447684
239	0xbdc8900e	-0.09793101
240	0xbdb32c74	-0.08748713
241	0xba1e7e92	-0.0006046082
242	0x3d89f0e2	0.06735398
243	0x3bcf05e7	0.0063178423
244	0x3da8582e	0.08219944
245	0xbd929eb3	-0.07159176
246	0xbc745d6c	-0.014914852
247	0xbd5af78e	-0.053458743
248	0x3d5ecaab	0.054392498
249	0xbd4889b9	-0.048959468
250	0xbd0ede10	-0.034879744
251	0xbdeb5fa4	-0.114928514
252	0xbda1446a	-0.07874377
253	0xbdbdbf84	-0.09265044
254	0x3d772df9	0.060346577
255	0x3d4fc01c	0.05072032

fc.weight f4 [1, 64]
0	0xbd9c70eb	-0.07638725
1	0x3dd36967	0.10322838
2	0xbd198cfd	-0.037487973
3	0xbd0a3f62	-0.033751853
4	0xbd3cf122	-0.0461284
5	0x3d9f8cd1	0.077905305
6	0x3db42922	0.08796908
7	0xbd9dcaa1	-0.07704664
8	0xbdd8c0da	-0.105836585
9	0x3dcf89d2	0.10133709
10	0xbd571838	-0.05251333
11	0xbcf80c2a	-0.030279238
12	0xbcfc1f9e	-0.030776795
13	0x3d8fb378	0.07016653
14	0x3d25bae0	0.04046142
15	0x3bfd7a46	0.0077355234
16	0x3d9c0093	0.07617297
17	0xbc28cf8d	-0.01030339
18	0x3c3d6f98	0.011562251
19	0xbd84a69f	-0.06477093
20	0xbd412481	-0.047153953
21	0xbd98d8fe	-0.07463263
22	0xbdcdc98d	-0.100482084
23	0xbdf6d015	-0.12051407
24	0x3de50867	0.11183243
25	0x3de4a6bd	0.11164615
26	0x3d81d599	0.06339569
27	0x3ced68b3	0.028980589
28	0x3d3c2597	0.045934286
29	0x3d6f4ead	0.05842464
30	0xbdd2cf4a	-0.102934435
31	0x3c7b8683	0.015351894
32	0x3ce75b66	0.028241824
33	0xbc8c272e	-0.017108526
34	0xbcbacefd	-0.022803778
35	0x3c639ad1	0.013891892
36	0xbdf7627d	-0.12079332
37	0x3e015964	0.12631756
38	0x3d9dc977	0.07704442
39	0xbd8c8594	-0.068614155
40	0xbd983dde	-0.07433675
41	0x3a1602b6	0.000572245
42	0x3d6f876e	0.058478765
43	0x3d8b2f08	0.0679608
44	0x3df0fc83	0.11766913
45	0xbd714a27	-0.058908608
46	0xbd32fe90	-0.0436998
47	0xbda05593	-0.07828822
48	0xbd86f3e3	-0.065894864
49	0x3bc81be4	0.0061068404
50	0x3db33d01	0.0875187
51	0xbcc44612	-0.023959193
52	0xbdc93736	-0.09824984
53	0x3d749b09	0.059718166
54	0x3de4710b	0.11154374
55	0x3d25698f	0.04038387
56	0xbd5323e8	-0.051547915
57	0xbd381548	-0.04494217
58	0xbd854359	-0.06506986
59	0x3d36beab	0.04461543
60	0xbd723a67	-0.059137728
61	0xbdaa9c21	-0.083305605
62	0xbd02501b	-0.031814676
63	0xbbbc5ad8	-0.005748134
