uniRecommendation/recommendation/DataProcessing/model_weights.pth (torch, 86984 bytes, 7 tensors)

conv1.lin_l.weight f4 [64, 130]
00000000: 3eec 443b 1ef1 dcba 6a55 ee3c ecab 63bd
00000010: 5b51 1f3d f7bc 9fbd e68e ea39 987f 0aba
00000020: a99e 9ebd 2a09 08bd d26e 9cbb 10e3 4dbd
00000030: 3844 4e3d 6aaa ad3d 647e f6bc b757 59bd
00000040: 1773 c53c 128e 16bd ff6f 2cbc 02f2 a0bd
00000050: de8d 223d 552b 8c3d 52b8 76bd 4a4e 973d
00000060: f0a2 8f3d c957 fd3c 7e89 f3b9 64b8 f8bb
00000070: 3561 4ebd aa23 f8bc 3385 7f3d 4b96 973d
00000080: 39af f1bc 2cb7 bdbb 160a a23d d833 b3bd
00000090: 28bc 8cbd 1eda 483d 1bbe 3e3d b961 6cbd
000000a0: 1eab 80bc f1c6 13bd 95e5 47bd a4d7 703d
000000b0: 3119 a2bd 7ac3 8d3c 8c49 613d cefe 95bd
000000c0: 64a4 93bd 2d03 763d f216 8dbd 429f 3abd
000000d0: 9beb 7a3d be6e 1dbc ba93 81bd a6a1 7a3d
000000e0: 9fc5 89bd a2df 9bbd ce01 013d 496c 38bd
000000f0: 7668 123c 2678 843c 29eb de3c c0b4 503d
00000100: bf90 893d ad9e 7ebd 3f9e 183d b0cd cabc
00000110: 995c 033d 2caa f23c f7d8 52bd 65e3 f0bc
00000120: 2fed 9f3d 538d 7a3d 879b fe3c d7f4 acbd
00000130: 3497 8cbd 5bc8 89bd a719 b83c 2741 9a3d
00000140: 12df aabd 2319 933d 65bf abbd 443f afbd
00000150: 9e08 993d 9d64 abbd f32c 8c3d b84d 11bd
00000160: 6abf d4bc 2a1b 2e3d a8b0 83bd dccb 323d
00000170: efac 513d ec54 8d3d 166a 7ebd 662f 93bd
00000180: 149f 25bd 7add 723d fc8a aebd c3b8 95bd
00000190: b828 f73b 20bc 14bd 2287 96bd f6f2 bb3c
000001a0: c705 473d 3bdc 83bd 5042 7a3d 66f9 d3bc
000001b0: a58a 57bd 97b4 963d 4073 853d ac76 7a3d
000001c0: d3bd 6bbd 91b6 153d f955 91bd 3307 37bd
000001d0: c904 743d 13e6 97bd ca4f 033d 34e6 453c
000001e0: 982c b6bb e9aa 573d 4b3b 5b3a 36e5 f8ba
000001f0: 092a c239 9662 8d3d 571d 9ebd 42f1 a3bd
00000200: 83cc a13c 34b1 d73c 4ae5 303d 8257 9a3d
00000210: ee3d 9c3d 320f 0dbc e82f 4fbd 9183 943d
00000220: e961 11bc f4b5 37bb 20a2 d1bb a079 a7bd
00000230: f0e1 993a 007e 12bd a97a 00bd 1f8f 903d
00000240: e17e e9bc 1bcd 99bc cdf6 823d 6c9e a33d
00000250: 50a2 b4bc 0adb b1bc 87bb 733c 0b8e a2bd
00000260: f161 2cbd c53d 913d de1d e5bc 534a 8abd
00000270: aa26 7a3d ad54 37bd 9b8d 993d 2daf 4ebd
00000280: 0a92 a9bd cc7f 95bd f75e 56bc 08de 6bbd
00000290: 0085 6b3c ae09 a53c 8682 3b3c 2996 9ebd
000002a0: f6a0 1abc 46e2 7ebd 93eb fa3c 3fec 883d
000002b0: afec a13d 5809 febc d1c9 96bd c950 adbb
000002c0: e911 0f3d 66fc 56bc 5a08 903c 781b 8b3c
000002d0: aa2b e7bb 3ef0 d73c 9e62 dcbc 9924 a1bb
000002e0: 7aff 8cbd 5599 af3d 4325 7bba 17be 163d
000002f0: 577a 213d 8b5b a83d d8c8 07bd e047 83bd
00000300: 4310 84bc af77 59bd eba1 93bb a63b b7bc
00000310: d884 25bd 68cd 293d db01 34bb 4e06 afbd
00000320: 5b41 0e3d 8f7f 8b3d d301 6abc d1da fd3c
00000330: 7797 9f3b 62a5 f8bc 38ef b83c 2f52 39bd
00000340: bdb1 04bd bf14 93bd 8239 e1bc b9a3 8b3d
00000350: 1e33 a3bd 43ac 2dbd 061f b33c 7fac acbd
00000360: 3478 693d cfac 01bd 45bb 1abd 816a 943d
00000370: 6a0a 77bc 6cf8 2c3c d0a9 00bd 64c9 7abc
00000380: fdf6 4bbc 55f3 98bc 3c07 b3bc cb99 bdba
00000390: f444 a83d 7dee a7bc 1e93 60bd 8e09 8f3d
000003a0: ad33 7fbd d16d 233d e816 703d 6743 f2bb
000003b0: 4a57 83bc d2fc ab3d 7573 73bd 2cd8 683d
000003c0: e0b1 893d 2bc8 9abd 5b3b fc3c 7746 8e3a
000003d0: 490e da3c a387 e3bc 7628 1abd 7922 053c
000003e0: 90a6 0bbd 3630 5c3c b45b f6bc 3cbd 0b3d
000003f0: d169 a4bd 1624 05bd 0b9f b0bd 31cb 20bd
0.0030048038 -0.0016856526 0.029093463 -0.05558388 0.038895946 -0.07799714 0.00044738426 -0.0005283295
-0.07745106 -0.033211865 -0.004773953 -0.05026537 0.050358027 0.084797695 -0.030089565 -0.053062167
0.02410273 -0.036756583 -0.010524749 -0.07858659 0.039686076 0.068442024 -0.060234375 0.07387979
0.070135 0.030925648 -0.0004645101 -0.0075903405 -0.050385673 -0.030290443 0.062382888 0.07401713
-0.029502498 -0.005789658 0.0791208 -0.08750123 -0.068718255 0.049036138 0.046568017 -0.057710383
-0.015706595 -0.036078397 -0.04880293 0.0587994 -0.07914961 0.017305125 0.05500178 -0.07323991
-0.072090894 0.060061622 -0.06889142 -0.045562036 0.061259847 -0.0096089225 -0.06327005 0.061189316
-0.06727146 -0.07611014 0.03149586 -0.045025144 0.008936038 0.016170572 0.027211742 0.050953627
0.06717061 -0.062163044 0.03726029 -0.024756283 0.03207073 0.02962216 -0.051476445 -0.029405305
0.07808911 0.061169934 0.03108002 -0.08445137 -0.06864777 -0.06727668 0.02247317 0.07531958
-0.083433285 0.07182529 -0.08386115 -0.08556989 0.07472347 -0.083688 0.06844511 -0.03547451
-0.02597018 0.042506374 -0.06430179 0.043651447 0.051190313 0.06900963 -0.06211289 -0.07186775
-0.04043491 0.059293248 -0.08522603 -0.07310631 0.007542696 -0.036312222 -0.07349993 0.022943001
0.048589494 -0.0643849 0.061098397 -0.025875758 -0.052622456 0.073586635 0.06516123 0.06114833
-0.057554077 0.036551062 -0.07096476 -0.0446846 0.059574876 -0.0741693 0.032058515 0.0120788105
-0.005559515 0.052653227 0.00083630224 -0.0018989209 0.00037033882 0.069035694 -0.0772044 -0.08005001
0.01975084 0.026329614 0.043187417 0.07536222 0.07629 -0.00860958 -0.050582796 0.07251657
-0.008873441 -0.0028032036 -0.0063975006 -0.08177495 0.0011740308 -0.035764694 -0.031366978 0.07058548
-0.028502883 -0.01877456 0.0639473 0.07989201 -0.022050053 -0.021710891 0.014876253 -0.07937249
-0.04208559 0.0709186 -0.027968343 -0.067524575 0.06107203 -0.044758487 0.07497712 -0.05046003
-0.08279808 -0.07299766 -0.013084165 -0.057584792 0.014374971 0.020146217 0.011444693 -0.077434845
-0.00943779 -0.06222751 0.030629909 0.06685685 0.07906472 -0.031010315 -0.07362712 -0.0052891714
0.03492919 -0.0131217 0.017582107 0.016980872 -0.0070547657 0.026359674 -0.026902493 -0.004917693
-0.06884666 0.08574168 -0.00095804426 0.036802378 0.039423313 0.082205854 -0.033150524 -0.064101934
-0.016121035 -0.053092655 -0.004505386 -0.02236731 -0.040409893 0.041455656 -0.0027466926 -0.085461244
0.034730297 0.06811439 -0.0142826615 0.030988129 0.004870351 -0.030352298 0.022575006 -0.045244392
-0.032396067 -0.071816914 -0.027493242 0.06818337 -0.07968734 -0.04240061 0.021865379 -0.084313385
0.0569994 -0.031658944 -0.03777625 0.072468765 -0.0150781665 0.010557275 -0.031411946 -0.015306804
-0.012449023 -0.018670717 -0.021854036 -0.001446539 0.08216277 -0.020499462 -0.054827802 0.06984244
-0.06230514 0.03989965 0.058615595 -0.007393289 -0.016032834 0.08397831 -0.05943628 0.056846783
0.0672338 -0.0755771 0.030790022 0.001085474 0.02661814 -0.027774638 -0.037636243 0.008125895
-0.034094393 0.013439229 -0.030073024 0.034116015 -0.080279954 -0.032505117 -0.08624085 -0.03925628

conv1.lin_l.bias f4 [64]
00000000: 33c7 5ebd 6b90 69bc 4d80 853d 52e4 afbd
00000010: c3c4 b0bd a1bf 78bc ac9b 143d 4efb 4ebd
00000020: 9c6c 99bd 8bad cabc 7936 1abd a907 1abd
00000030: eacc 34bd 8170 bdbc 8117 25bd 119c bb3c
00000040: 7638 473d 7ff9 cfbc 3291 33bc 935b a6bd
00000050: acda 113d 6cbe 1bbd 94f7 b23c cd32 adbd
00000060: 2c58 1d3d 49e5 db3c e338 b3bd e671 39bd
00000070: 3d92 253c fe10 a03d 899c 943d b2cd 9a3d
00000080: e969 703d d715 97bc d79b 283c 8319 aa3c
00000090: 7dd2 36bd 100a 10bc c4d1 7abc 0820 8ebd
000000a0: d4b1 e5bc d823 613d 8edc c5bb c7e0 df3c
000000b0: dee5 723d 1c96 bdbb 68cd 47bc 6ffc a3bd
000000c0: 5e7b 89bd e5d5 e03c 25ca 49bc 93bd 4abc
000000d0: 4107 4fbc 8a8c af3d f39e 84bd 5aa3 a43d
000000e0: eade 903d 5181 b0bd cb32 6dbd be2f a1bd
000000f0: a9b7 70bd 6d2a 9cbd 391b b93c 7edd 84bd
-0.05438919 -0.014255623 0.06518612 -0.085884705 -0.08631279 -0.015182407 0.036281273 -0.05053263
-0.07491419 -0.024740955 -0.037649605 -0.03760496 -0.044140734 -0.023124935 -0.04030562 0.022901567
0.04863783 -0.025387524 -0.01095991 -0.08122935 0.035608932 -0.038023397 0.02184657 -0.08456955
0.038414165 0.02684273 -0.08751085 -0.045274638 0.010105667 0.07815741 0.07256419 0.075587645
0.058694754 -0.018443031 0.010291061 0.020764118 -0.04463433 -0.008791462 -0.015308801 -0.06939703
-0.028038897 0.054965824 -0.006038255 0.027328862 0.05930125 -0.0057857167 -0.012194969 -0.08007132
-0.067129835 0.027445743 -0.012316261 -0.0123743 -0.012636007 0.085717276 -0.0647563 0.08038969
0.070737675 -0.08618415 -0.057909768 -0.07870434 -0.058768902 -0.076252796 0.022595989 -0.06487559

conv1.lin_r.weight f4 [64, 130]
00000000: 2797 953d f576 8dbd ea64 9f3d 3f69 2abd
00000010: 6abc 773c f6fe ed3c 3d6a c9bc 58c8 e0bc
00000020: 6f4e b5bc 3dca a53a f7f5 8ebc 0f74 dbbc
00000030: 76d1 e3bc 57d0 063d 9d55 afbc 31b8 243d
00000040: 8aa9 a63c 9f2e f9bb 82d0 bcbc 86bb 463d
00000050: c8d1 88bd 56db c93c f538 afbd 4b76 1fbd
00000060: f1d2 2d3b b92b 943d 6c7b 323d 7ee8 1dbd
00000070: 2ed8 f6bc f641 3f3d a6b8 4ebd b9fc 6d3d
00000080: 3275 72bd bb63 a43d 7673 86bc b1bc 6a3d
00000090: 3457 39bd 75ae a0bb 0267 aabd e099 b33d
000000a0: 0a4f 743d 27f4 af3d 5eff aabc da07 9ebd
000000b0: 2abe 9abd e730 a3bb e9f8 813d 4ce5 a63d
000000c0: 69a1 72bd 9737 0abc 8199 14bd b7c3 3dbd
000000d0: 237a 66bd d84f 983d b9bd 213d 2410 733d
000000e0: a93b a43c f73a 00bd fec3 be3a 0682 a43d
000000f0: 826d e7bc cfce 72bd b603 87bd 632a ccbc
00000100: 6dff 13bd 5e4c a13d 65c3 763d 0601 90bd
00000110: 18e8 b0bc 820f 40bd 0af8 863d 0dfd 913d
00000120: f236 593d 83ba 05bd 3700 a7bc 483b 4d3b
00000130: 33da 38bd 6eb5 37bb 1b8c 22bc e01c 71bd
00000140: 989a fdbc 30ba 033d 3fde 333c 458e 8dbd
00000150: 8c7c 803c 4ec3 6bbd 82e2 54bd a477 843d
00000160: 469e 91bc b98e 6a3d 6779 95bd 5b94 163d
00000170: 496b 333d 8b6b 913d eabb ac3d c08c 9f3d
00000180: da25 6cb9 33f0 fa3b 18f2 ac3d d67e 89bd
00000190: 8219 71bc decd 4cbd b9bc a13d fa14 cd3c
000001a0: a830 64bd 0821 1f3d c385 6dbd 5882 033d
000001b0: 8e28 04bc 0c86 7c3d 1c0a 38bc 2d78 293d
000001c0: b087 9e3d e05e b83b 6ea2 debc 3cef 7a3b
000001d0: 0e0f 65bd 7799 423d 0438 093d 47f4 3bbd
000001e0: 53dc a03d d501 5a3c a7e2 243c 89f3 ed3b
000001f0: 5635 1f3d b588 813d 5547 febc 3ffc acbd
00000200: b2a4 833d 2632 30bd d27b 5bbd 9fd1 90bd
00000210: 3f4a 3abd d7fa 09bd c594 2dbd 4434 abbd
00000220: e1bb d7bc 69b2 d7bc 7736 463d aea7 abbd
00000230: fd05 843d 9971 a4bc 410f a73c c959 a0bd
00000240: 3f0a a6bd f0ef 06bd c09d 97bd 4515 bd3c
00000250: eb23 3a3d 96e5 fa3c 7d4f 143c 4399 953b
00000260: 13be 89bc 44cf 0a3d 534f 53bd cbf1 33bd
00000270: 3cb9 46bd 4feb 803d 8d1f 5f3d 040e 143c
00000280: c074 09bc 23bf e5bc 89d0 893b 7a7d afbd
00000290: 18b4 6e3d cc3c a9bd e0b7 bdbc 905f e23c
000002a0: e653 233d c7ab 99bc edff 803d 60d0 7b3c
000002b0: 07ab 42bd 3855 df3c 08b5 2dbc 5e67 9ebd
000002c0: a77e 6fbc 9961 39bd 6a77 09bd 66cc b3bc
000002d0: 3300 033c 678f 663d 30f7 25bd de6a 81bb
000002e0: 55d0 02bd e8b8 783d 0356 b0bd 54ab adbd
000002f0: fd7c 893d df8e e8bc 54f4 8abd fe32 563d
00000300: 14f5 323c e5fc 06bd 29b2 a8bb c496 4cbd
00000310: a066 c63c 7ea7 f03c 646b 283d 877e a73d
00000320: ea58 9c3c 6c2c 333d 5a4d 79bd 13d1 e23c
00000330: b412 55bd bec9 06bc 7a18 493d d6cf 58bd
00000340: 07c6 423d 9db1 113d 1062 93bd ad27 97bd
00000350: 2ff4 823c 94a4 673d b919 3ebd f998 093c
00000360: f3fb 89bc 83ed bf3c 1508 9fbd 81a7 ab3d
00000370: fa64 49b9 5b4d 20bd 612b 713d 081f 99bc
00000380: 82a1 9fbd c23b 5dbc 468a 4e3d eb75 8bbc
00000390: 5933 40bd e4f8 b5bc add5 92bd 3cee 8a3d
000003a0: 13da 79bd c3a2 ab3d f93d 76bd 9256 8abc
000003b0: d99d 88bd 6054 ef3c 1a12 64bd 1869 113d
000003c0: 8ccc 0fbd 7238 22bd 1e32 983d 106b 8a3d
000003d0: cbaa a83b 00d8 04bd 35b3 97bd 8ec4 ae3d
000003e0: daaa aebc 6611 c1bc de79 bdba 72ea f63b
000003f0: 00b3 93bd 724d e5bc 6061 463d 905d 6e3d
0.07304221 -0.06907455 0.0778292 -0.041604277 0.015120605 0.029052239 -0.024586791 -0.027439281
-0.022132127 0.0012648773 -0.01745127 -0.02678874 -0.02780984 0.032913532 -0.021403128 0.04021472
0.020344514 -0.0076044346 -0.023048643 0.04851868 -0.066806376 0.02464072 -0.085557856 -0.038931172
0.0026523436 0.07234902 0.043574736 -0.0385518 -0.03013238 0.046693765 -0.050469063 0.058102343
-0.059193797 0.080268346 -0.016412478 0.057308856 -0.04524918 -0.0049036094 -0.083204284 0.08769584
0.05964569 0.0859149 -0.020873722 -0.07716341 -0.07555802 -0.004980195 0.06346304 0.08149204
-0.059235964 -0.008436105 -0.036279205 -0.046329226 -0.056268822 0.07437104 0.039487574 0.059341565
0.02004798 -0.031306233 0.001455426 0.080326125 -0.02825046 -0.05927926 -0.06592505 -0.024922555
-0.036132265 0.07875894 0.060244936 -0.07031445 -0.021595046 -0.04688979 0.065902784 0.07128344
0.053030916 -0.032648575 -0.020385845 0.0031315852 -0.045129966 -0.0028031725 -0.009921099 -0.058865428
-0.030957505 0.032159984 0.010978281 -0.069119014 0.015684389 -0.057559304 -0.051973827 0.06468132
-0.017775666 0.057265017 -0.07298546 0.036762577 0.043803487 0.0710059 0.08434279 0.07790518
-0.00022520815 0.0076580285 0.08444613 -0.06713645 -0.014715554 -0.050001018 0.07897324 0.025034416
-0.055710465 0.03884986 -0.057988893 0.032106727 -0.00806631 0.061651275 -0.011232879 0.041374374
0.07740724 0.0056265444 -0.027177062 0.0038289567 -0.05592256 0.047509637 0.033500686 -0.045887258
0.078545235 0.013306101 0.010063804 0.0072616977 0.038869224 0.06324903 -0.031039873 -0.084465496
0.064278975 -0.043016575 -0.05358488 -0.07071232 -0.045480963 -0.033686485 -0.042378206 -0.08359578
-0.026334705 -0.02633019 0.048391785 -0.08381592 0.06446455 -0.020073699 0.020393016 -0.07829625
-0.08107423 -0.032943666 -0.07403135 0.023081431 0.04544441 0.030627053 0.009052155 0.0045653894
-0.016814267 0.03388907 -0.05158932 -0.043931764 -0.048516497 0.062948816 0.05447345 0.009036545
-0.008389652 -0.028045243 0.0042057675 -0.08568855 0.05827722 -0.08263549 -0.023158967 0.027633458
0.039874934 -0.018758668 0.06298814 0.015369505 -0.047526386 0.027262315 -0.010602243 -0.077345595
-0.014617599 -0.045259092 -0.033561148 -0.02194805 0.007995653 0.056289103 -0.04051894 -0.003949507
-0.031936962 0.060723215 -0.086101554 -0.08479944 0.06713293 -0.028388439 -0.06784883 0.052294724
0.010922689 -0.032956023 -0.0051481915 -0.04994847 0.024218857 0.029376741 0.04111804 0.0817843
0.019085366 0.043743536 -0.060864784 0.027687585 -0.05201979 -0.00822681 0.04909561 -0.052932583
0.047552135 0.035569776 -0.07196438 -0.073806144 0.015985576 0.05655344 -0.04641125 0.008398288
-0.016843772 0.023428684 -0.077652134 0.08381558 -0.0001920647 -0.039136272 0.05887926 -0.018691555
-0.07794477 -0.013503017 0.050424837 -0.017024001 -0.04692397 -0.022213407 -0.07169662 0.06783721
-0.060998987 0.08380654 -0.060117695 -0.016886983 -0.06670732 0.029215038 -0.055681325 0.035500616
-0.03510718 -0.03960461 0.07431434 0.06758702 0.0051473132 -0.032432556 -0.07407228 0.085335836
-0.021321703 -0.023567867 -0.0014455875 0.0075352723 -0.07211876 -0.02799103 0.048432708 0.058194697

conv2.lin_l.weight f4 [32, 64]
00000000: 4898 bb3d f274 be3d d4e9 85bd e456 09bd
00000010: c42a ae3d d0c6 243c 6416 033d 80e5 f53a
00000020: 12b1 d73d 36f6 f0bd 48d2 8b3d 70de f53d
00000030: 041a 44bd d6c9 993d 5c61 69bd b0ea dd3d
00000040: d044 11bc b8c4 dfbd 7005 3ebd 68af 1bbd
00000050: 0c6a eebd 5822 303d e4c3 babd e8ce e43d
00000060: d445 e9bd a0e5 ad3c e403 77bd 685f b1bc
00000070: ce04 97bd d2de ccbd 9497 6c3d 58a6 abbc
00000080: f06a c13c 004c 4ebd 6097 763c 96e7 90bd
00000090: 3475 f13d 60bf a2bb 889d d93d d02b cbbc
000000a0: 9411 c73d 5800 f5bc 3238 c9bd f28e 8fbd
000000b0: 08fc 453d d83a 78bd e05d 3ebc bcc7 9abd
000000c0: d655 e93d 1498 8b3d bce3 753d 58a8 a0bc
000000d0: c2c3 cf3d 8c4f f93d ec3e 14bd 2ce7 c2bd
000000e0: e8d5 f23c c8de 81bc 6831 933c 6867 61bd
000000f0: c82d 883c 64bc f3bd 448f 223d 361b 873d
00000100: a0e5 c93c 0434 4bbd 601d 3fbc 5ce3 8cbd
00000110: e050 9f3c 6af6 9abd 4873 723d aa47 e4bd
00000120: c097 a0bb 6678 833d 5025 d13c 3c76 0e3d
00000130: ca36 86bd 60e9 d83b cca5 f23d b0e9 6a3c
00000140: a00d 813d 6c26 e3bd 8c2f a23d 406e 0f3b
00000150: bece f8bd 406f 683c d0f7 eabc 9806 e93d
00000160: d828 b6bc c870 81bd 969a cd3d a0b9 01bc
00000170: 2697 983d b0e6 50bc 8896 7a3d 7c87 2d3d
00000180: 46da a8bd e815 57bd 487b 063d 14a8 623d
00000190: 3003 453c 007a d3ba 5495 7dbd d83b dd3d
000001a0: b669 c2bd 2e47 a4bd 1c73 e93d d2a9 8a3d
000001b0: 60c2 9f3b bc11 56bd 5061 b43d d4ce aebd
000001c0: 88ea 073d 3449 373d b4a9 f93d 883c bebc
000001d0: c0ff ef3c fc7d ad3d 2684 f13d c052 6c3b
000001e0: fac1 a5bd c05f 443c c88c 58bd 449f 3e3d
000001f0: f072 5abd 5413 38bd f8d9 bcbc 2839 c0bc
00000200: 1e06 fa3d b674 a6bd 505a 4abc b43b c5bd
00000210: 10b7 3c3d f891 d23d c0d4 f1bc 8a42 f8bd
00000220: 380a 9a3d 1cc2 afbd 0c84 873d 8040 81bd
00000230: 4e36 8b3d d43e 473d 489c fabd 24b2 10bd
00000240: 68fe d53c 68d4 d63d c0d0 d33d d06f 643d
00000250: 2c13 acbd 8cc5 2ebd 80b6 9bbd 0817 a23c
00000260: 6cea 2fbd c4cf 3bbd 6cf7 1b3d f8fa 9e3d
00000270: 2844 973c 284e f0bd 8268 aebd aabe c6bd
00000280: 20f5 9a3b 1803 d63d c09e 4abd aa3b e33d
00000290: a0ac e6bb 8613 ee3d ccc9 bd3d 329a a2bd
000002a0: 50bf 9d3d 68ba 2cbd 8037 c7ba a0cc da3b
000002b0: 7e1c dd3d b87a c8bc d4f5 373d 1e4e 803d
000002c0: b826 00bd e4ec 4f3d 30f8 c9bd e254 fcbd
000002d0: bcc5 253d 940d 4fbd 08e8 1e3d 0063 c93d
000002e0: 608b 473c 90db 1d3c ccf0 8b3d e2c5 833d
000002f0: b43c a1bd dc0c 8c3d 800a bc3d fcd1 a13d
00000300: b0e9 aebd ec8c d23d 5228 9b3d 20c2 51bd
00000310: 1058 a13d 449c 643d e806 ddbd 368a d4bd
00000320: c6b9 f6bd 50ec 593d b44e 073d 8079 01bc
00000330: 6238 ee3d 3818 efbc ba56 a83d f40d 923d
00000340: 00e6 da3c 5c79 22bd 7813 07bd e0d0 d6bc
00000350: 46d2 ad3d 8472 2ebd 403f b2bc 8095 493b
00000360: 9220 dcbd 1c38 43bd c0fe 153c d02b 61bc
00000370: c41f fcbd d812 2c3d aac7 c63d 40ad fbbd
00000380: 50ec 62bd c822 e0bc a86f 723d 822c eb3d
00000390: 96ce 803d c4d9 71bd a49c 803d 709c 72bc
000003a0: 602a 5e3d 3461 7abd ecb8 323d 9002 da3c
000003b0: 706b a43d 901f 8c3d 6816 a03d b037 cabd
000003c0: d41c 933d 540b 32bd 7056 7abd c847 ca3c
000003d0: 1e47 97bd aa9c a9bd 00c4 24ba f8d0 92bd
000003e0: 708a 7d3c 3894 a9bd 10c8 1d3d f833 fdbd
000003f0: a064 353d c0fe efbb c033 793d b0e4 12bd
0.09159905 0.09299649 -0.0653874 -0.03353013 0.08504251 0.010057166 0.032003775 0.0018760413
0.1053182 -0.11765711 0.06827217 0.12005317 -0.047876373 0.075092 -0.056977615 0.10835779
-0.008866504 -0.10926193 -0.046391904 -0.038009077 -0.116413206 0.043001503 -0.091193944 0.11172277
-0.11390272 0.021227658 -0.060306445 -0.021651939 -0.07373963 -0.10003437 0.057761744 -0.020953342
0.023610562 -0.050365448 0.015050739 -0.070754215 0.11789933 -0.0049666613 0.1062575 -0.024801165
0.0972015 -0.02990739 -0.098251715 -0.070096865 0.04833606 -0.060602993 -0.011619061 -0.075576276
0.11393325 0.06816116 0.060031638 -0.019611523 0.1014476 0.121733755 -0.03619282 -0.09516749
0.029643014 -0.0158533 0.017967895 -0.055030257 0.016623393 -0.11901167 0.03968741 0.06596987
0.024645627 -0.049610153 -0.011664718 -0.06879303 0.019447744 -0.07566531 0.059191972 -0.11146481
-0.0049009025 0.064194486 0.025530487 0.034780726 -0.06553419 0.0066196173 0.118480295 0.014337942
0.06301427 -0.11091313 0.07919225 0.0021885782 -0.12148808 0.01418668 -0.02868262 0.11378211
-0.022236273 -0.063203394 0.100392506 -0.007917792 0.07450704 -0.012750313 0.061178714 0.042365536
-0.08244757 -0.052511126 0.032832414 0.055336073 0.012024686 -0.0016134381 -0.06190999 0.1080243
-0.09492819 -0.08021389 0.113989085 0.06770672 0.004875466 -0.052263007 0.088076234 -0.08535543
0.03318265 0.044747546 0.121905714 -0.023222223 0.029296756 0.08471295 0.117927834 0.0036060065
-0.08093639 0.011985719 -0.052868634 0.046538606 -0.05333227 -0.044940308 -0.023053154 -0.023464754
0.12208198 -0.081277296 -0.012350634 -0.09630528 0.04607302 0.102817476 -0.029520392 -0.12122066
0.0752148 -0.08581945 0.06616983 -0.063111305 0.06797467 0.048643902 -0.122368395 -0.03532614
0.026122287 0.10489732 0.1034255 0.055770695 -0.08402094 -0.042668864 -0.076031685 0.019786373
-0.04294817 -0.045852438 0.038077757 0.07762712 0.018465117 -0.11733657 -0.08516027 -0.09704335
0.004728928 0.10449809 -0.049467802 0.110953644 -0.0070396215 0.116248176 0.09267005 -0.07939567
0.077025056 -0.04216996 -0.0015199035 0.006677225 0.1079645 -0.02447258 0.044912174 0.062649
-0.031286925 0.050763026 -0.09861791 -0.123208776 0.040471777 -0.05055006 0.0387955 0.09833336
0.012179226 0.009634867 0.06833038 0.064342275 -0.07872906 0.0683839 0.0918169 0.079013795
-0.08540666 0.10280785 0.0757605 -0.051210523 0.07878125 0.05581309 -0.10792333 -0.10377924
-0.12047152 0.05320388 0.03303404 -0.007902503 0.11631848 -0.029186353 0.08219667 0.071315676
0.026721 -0.03966652 -0.03297755 -0.026222646 0.08487372 -0.04258968 -0.021758676 0.0030759275
-0.107484 -0.047660932 0.009154975 -0.013743356 -0.12310746 0.04201016 0.09706052 -0.12288904
-0.055401146 -0.027360335 0.059188515 0.114830986 0.06289403 -0.059045568 0.06279877 -0.014807805
0.05423963 -0.061127856 0.043633386 0.02661255 0.080283046 0.068419576 0.07816774 -0.09873903
0.07183233 -0.043467835 -0.06111759 0.024692431 -0.073866114 -0.082818344 -0.000628531 -0.07168764
0.015474901 -0.082802236 0.038520873 -0.12363428 0.044285417 -0.0073240697 0.06084037 -0.035862625

conv2.lin_l.bias f4 [32]
00000000: f01b df3d b0e1 7cbc 24f9 d33d 3ccb b13d
00000010: 8078 4e3d 980b b93d cc54 98bd 9ac5 a13d
00000020: 3cae 2bbd 10c8 743c 7001 c03c ee81 913d
00000030: 001a 82ba 604a b4bc f04c 363d 683f 233d
00000040: 883f 813d d074 5cbc e861 883c ea9a b63d
00000050: 60e3 9abc 00c6 8939 6603 8e3d 6c0b e2bd
00000060: 5011 4b3d 409e 2c3c 2aaa a7bd 90ef aebc
00000070: 40f3 f83b 862a f63d c649 d93d 5042 1bbc
0.108940005 -0.0154346675 0.10350254 0.08681342 0.050407887 0.090354145 -0.07438049 0.07899018
-0.04191421 0.014940277 0.023438185 0.0710486 -0.0009925961 -0.022008121 0.044506967 0.03985539
0.06310946 -0.013455585 0.016648248 0.08916266 -0.018907249 0.00026278198 0.06934242 -0.11037335
0.049577057 0.010535777 -0.08186753 -0.021354467 0.007597357 0.120198295 0.10609774 -0.009476259

conv2.lin_r.weight f4 [32, 64]
00000000: 9820 d7bc 782c ca3d c80a c4bc a01f 3f3c
00000010: b8e0 743d 263e e93d 80fc 463b 588b 62bd
00000020: 004d 1f3c fec3 80bd 748b d1bd 9281 cdbd
00000030: d887 ad3c e8f9 31bd 0eee ef3d 80aa a43b
00000040: ccb2 3ebd 7046 5fbc 8866 203d d4a4 6b3d
00000050: 8891 f33c 8874 9dbd a203 f2bd 6a86 ddbd
00000060: 9083 e03d b845 c3bc 8072 cd3b 2236 c8bd
00000070: 2421 3dbd 4849 aabc 843f 723d 968c b53d
00000080: 5477 073d 6ca8 ebbd dc31 a2bd b43b 83bd
00000090: 6890 ec3c a835 423d e0c9 06bc c0d8 6bbb
000000a0: 32c8 babd 7457 a9bd 4e8f bd3d 20bb ce3b
000000b0: b6af fdbd 0831 debc d412 cc3d dcd9 90bd
000000c0: 1828 cabd 907f a33c 7025 0e3c b445 253d
000000d0: 9039 943c 803f f5bc ec60 783d 7cc7 5a3d
000000e0: ee2b 943d 8c67 b13d 7cde 053d 2aa2 a33d
000000f0: f81c a5bd 7e07 b53d 1046 cebc 0eaa eebd
00000100: 903e 80bc 589f 0e3d d4af 74bd 36a0 b7bd
00000110: 0ea3 dd3d a4f7 53bd 4e26 aa3d d845 86bd
00000120: 006a 9b3a 2a73 cd3d 62e0 fc3d 94ba a5bd
00000130: 4827 623d d018 6b3c 6030 57bd b49e 1fbd
00000140: 9826 35bd 38e7 7b3d 6c3c d23d 3eee aabd
00000150: fc16 753d 08fd aabc e2b5 be3d 088f 28bd
00000160: ea2f a63d bc65 2d3d c6ee 9e3d 68e1 6f3d
00000170: 20d5 133d fe30 ae3d 1ed0 f53d 0abb b93d
00000180: ccf5 8c3d 4850 7fbd d26a dbbd 4068 663b
00000190: 6cf6 bd3d 9803 d2bd b026 d4bd 4c76 f7bd
000001a0: 50c5 66bd 0046 cdb9 ea3a ecbd a04f 95bb
000001b0: 9e26 f53d 2475 063d e2a2 b63d e8a2 633d
000001c0: 4029 cbbc c06b db3d a8f5 3c3d 84f9 e33d
000001d0: aa81 bcbd 7a1f f63d 4c5d d93d 2037 c2bc
000001e0: 1c9c 10bd e8cf 75bd bc57 3f3d 4440 4f3d
000001f0: 6edd bdbd 484f cfbd 6e1e cd3d c8e0 9a3c
00000200: 5237 90bd 84d7 a63d 3a7d 9bbd a851 cd3d
00000210: 7a21 bb3d 20bb d13b 6094 a03d f4de f33d
00000220: 8005 dc3c 502d 22bc 8e95 a13d 9c28 e53d
00000230: de55 f5bd 60bd a5bb be26 ea3d 206d aa3d
00000240: 5683 89bd 200f acbb dc64 21bd d2ab e23d
00000250: 520b cfbd e01d 6ebc c0b2 c4bb c045 943c
00000260: e49f 013d dee1 ad3d dc5f 573d 9c4c 8b3d
00000270: c019 183c 9861 aabc 6047 afbc fa17 89bd
00000280: 74bf c5bd 5ea4 dfbd 3685 aabd cc92 023d
00000290: debf 9d3d a6fe c43d c009 68bb 88fc 82bd
000002a0: 1cca d33d 405e 083d 3065 34bc f6aa febd
000002b0: 8c82 85bd 5ef2 ecbd 0889 d6bd 8ccf 803d
000002c0: aecb adbd 880e 413d 0865 8dbd 1a7d c2bd
000002d0: 608e 8e3b d8a4 c2bc 0ca4 293d c014 a1bc
000002e0: 38c8 14bd e80d 263d 80c3 463d 08b5 d33c
000002f0: b42b 823d dcd1 203d a84b f33c 4e7c 8c3d
00000300: e851 d5bd 58a7 f8bd a073 bfbb 90b6 b13d
00000310: b0f2 c0bd 60d8 da3d 7c97 e6bd 705c e5bc
00000320: 4890 783d 0074 3b39 207d b8bb a8ea d13c
00000330: 382b c23c 6c0a 56bd 62c1 a2bd 80b0 883b
00000340: ba55 993d 2c45 00bd 0e26 d7bd e0d1 c63d
00000350: 74a6 09bd 5881 8c3c f806 b13c 2c52 fb3d
00000360: 68df 113d 7c98 11bd a8ea 083d 0055 a03d
00000370: 60f2 82bb a89a 963c c2c3 96bd 6849 b4bd
00000380: 0a1f b4bd cc3a 2abd daf8 f9bd 1048 aa3c
00000390: d082 c1bc 7085 c53c 00af 20ba 8e5c 85bd
000003a0: c006 40bd 12cb 833d 20fc 9f3c b6c9 98bd
000003b0: e0b7 5e3c 70c3 6ebc 8ce7 f0bd 6e3a e6bd
000003c0: bc76 1f3d 8015 96ba 002d 78ba 3c92 2d3d
000003d0: 009d 843d 204d c6bd 0040 84ba c00c e2bb
000003e0: 988a ecbd 18a0 b5bd 1c97 283d a898 72bd
000003f0: da28 a23d dafc d9bd 4cbb 15bd 10a9 763c
-0.02626066 0.09871763 -0.023930922 0.011665255 0.05978462 0.11388807 0.0030362904 -0.05530867
0.009722948 -0.062873825 -0.10231677 -0.10034479 0.02118294 -0.04345122 0.11715327 0.005025208
-0.046557233 -0.013627633 0.03916028 0.05753024 0.02973248 -0.07688242 -0.11817099 -0.10816653
0.109625936 -0.023836955 0.006269753 -0.0977595 -0.046174183 -0.020786896 0.059142604 0.08864705
0.033072785 -0.11506733 -0.07919666 -0.06407872 0.028877452 0.04741445 -0.008226842 -0.0035987347
-0.091202155 -0.082686335 0.09255849 0.006308928 -0.1238703 -0.02712299 0.09964529 -0.070728034
-0.098709285 0.019958287 0.008675918 0.040349677 0.018093854 -0.029937506 0.060639307 0.0534129
0.072349414 0.08662328 0.03268288 0.07989915 -0.08062166 0.0883932 -0.025179893 -0.11653529
-0.015654832 0.03481993 -0.059737995 -0.08966105 0.10822116 -0.05174984 0.08308087 -0.065562904
0.0011857152 0.100317314 0.12347485 -0.080922276 0.055213243 0.0143491775 -0.05253637 -0.03896971
-0.04422626 0.061499804 0.10265431 -0.08346222 0.059836373 -0.020872608 0.09312035 -0.04115203
0.08114608 0.04233335 0.07760386 0.058564574 0.036091924 0.08505438 0.12002586 0.09068878
0.068828195 -0.06233242 -0.10713734 0.0035157353 0.09275517 -0.10254592 -0.103589416 -0.1208311
-0.056340516 -0.000391528 -0.115346745 -0.004556611 0.11970256 0.032826558 0.08917786 0.05557528
-0.024799943 0.10713911 0.046132714 0.11131576 -0.09204419 0.120177224 0.10613498 -0.023707926
-0.035305128 -0.060012728 0.04671453 0.050598398 -0.0927075 -0.101225436 0.100155696 0.018906012
-0.070418015 0.08146575 -0.075922444 0.1002534 0.091372445 0.006400481 0.078408 0.11907759
0.026858091 -0.009898499 0.078898534 0.11189386 -0.119792685 -0.0050579756 0.11433171 0.08321595
-0.067145035 -0.0052508265 -0.039402828 0.110679284 -0.10109581 -0.01453349 -0.006002754 0.018099666
0.031646624 0.08490346 0.052581653 0.068017215 0.009283483 -0.02079849 -0.021396339 -0.06694026
-0.096556574 -0.109200224 -0.08326189 0.031878278 0.077026114 0.09618883 -0.0035406202 -0.06395823
0.10341284 0.03329301 -0.011010453 -0.12434952 -0.065190405 -0.11569665 -0.104753554 0.062895864
-0.084861144 0.047133 -0.06904036 -0.094965175 0.0043504685 -0.023760244 0.041416213 -0.019663215
-0.036323756 0.040540606 0.048526287 0.025843158 0.06355992 0.039262637 0.029699162 0.06859647
-0.10416013 -0.12141293 -0.005842641 0.08677399 -0.09421289 0.106858015 -0.11259362 -0.02799818
0.060684472 0.00017876923 -0.0056301504 0.025624588 0.023702249 -0.052256033 -0.07947041 0.004171431
0.07487054 -0.031315967 -0.10505305 0.09707999 -0.033606008 0.01715152 0.021609768 0.122715324
0.035613447 -0.03554581 0.03342691 0.078287125 -0.0039961785 0.018384293 -0.073615566 -0.08803064
-0.08794983 -0.04155998 -0.12205668 0.020786315 -0.023621947 0.02411148 -0.00061295927 -0.06511794
-0.046881437 0.06435217 0.019529402 -0.07460348 0.013593644 -0.014572963 -0.11762914 -0.11241613
0.038931593 -0.0011450499 -0.0009467155 0.042375788 0.06475258 -0.09682679 -0.0010089874 -0.0068984926
-0.11549872 -0.08868426 0.041159734 -0.059227616 0.07917948 -0.10643931 -0.036555573 0.015054956

fc.weight f4 [1, 64]
00000000: 4049 9f3b 2460 87bd aa98 d23d 845d 54bd
00000010: 4c4a fe3d f4a9 63bd e4f4 21bd 1010 bdbc
00000020: cecd f03d 10da 343d 821e ec3d 58b2 c5bd
00000030: f4fd 30bd a02c 603c b049 7c3c 40aa babd
00000040: 38d9 e23d 2633 c7bd 2448 673d 64cb d33d
00000050: 803c 613b aec9 f1bd e88b 05bd 74f3 df3d
00000060: 80de a03c dc1b 10bd bc7f 93bd 541c 5b3d
00000070: c6a0 f9bd 74d8 8c3d 662f ce3d c895 03bd
00000080: a09b e83c c012 14bd 44f2 c03d 5690 98bd
00000090: 00be 8e39 74f9 de3d 38e7 1cbd 1026 07bc
000000a0: 2c02 2e3d 005c 43ba 06b1 debd c231 c3bd
000000b0: 6447 51bd ac44 8d3d 0c0b 1c3d 7a06 a0bd
000000c0: 5642 cf3d e6c4 a23d 6847 b1bd 92df 9d3d
000000d0: 8063 04bc 14f2 56bd a094 b63b 207f 3abc
000000e0: 1a8a dabd 7ecc f7bd d0ac a2bd 281f 8dbc
000000f0: 9283 bdbd 5c8d debd 809a 993d 68a6 dc3c
0.004861027 -0.06610134 0.102830246 -0.051846996 0.12416515 -0.055582 -0.039540187 -0.023078948
0.11758004 0.044153273 0.115292564 -0.09653157 -0.04321094 0.013682514 0.015398428 -0.09114504
0.110765874 -0.09726553 0.056465283 0.10341528 0.0034368336 -0.118060455 -0.032604128 0.10935107
0.019637346 -0.03518282 -0.07202098 0.053493813 -0.12188868 0.06877223 0.10067634 -0.032125264
0.02839452 -0.036150694 0.094212085 -0.07449405 0.00027225912 0.10887423 -0.038306445 -0.008248821
0.04248254 -0.0007452369 -0.10873608 -0.09530975 -0.051093474 0.06897864 0.038096473 -0.07813735
0.101200745 0.07947712 -0.08656198 0.07708658 -0.008080363 -0.052476957 0.0055719167 -0.011382848
-0.10670872 -0.12099551 -0.079431176 -0.01722677 -0.09253611 -0.10866806 0.07500172 0.026934817
