uniRecommendation/recommendation/DataProcessing/model_weights.pth (torch, 54216 bytes, 7 tensors)

conv1.lin_l.weight f4 [64, 66]
-0.039520822 -0.012947002 -0.10497907 0.107752055 0.089187495 -0.03084693 0.056048468 -0.020975085
0.012591695 0.104151905 0.028809754 0.065123916 -0.00063955336 -0.059864465 -0.08527727 0.10749861
-0.073057845 -0.0498648 0.099586494 0.009254859 0.030817416 0.06669469 0.014245975 -0.0019385446
0.02638366 0.008621477 0.02758453 0.04777666 -0.0266008 0.049489662 0.01795909 0.03086645
-0.0510052 0.044709485 0.00450231 0.04890983 -0.09369795 -0.08826238 0.039482426 -0.07558314
-0.112136774 0.047284167 0.037176684 -0.055121616 -0.09960015 0.09254992 -0.068378344 0.0011846524
-0.015044476 0.013583236 0.07236735 -0.02862039 -0.05457191 0.10781267 0.08599341 -0.053705197
-0.027251387 0.03320803 -0.052649986 -0.12310107 -0.116844505 0.04362329 0.013844118 -0.11666004
-0.08571568 -0.038435966 0.0048012068 -0.110630356 -0.0004385484 0.08669765 -0.0041125845 0.08811188
0.11899194 -0.092978135 -0.057826247 0.009283943 0.06565364 0.056449592 -0.04335026 0.11096756
0.15439054 -0.06669342 -0.08223923 -0.03000232 -0.012310016 0.0751745 -0.086215876 0.006174133
-0.09202037 -0.125169 0.016760226 -0.007367804 0.016636655 -0.060381424 -0.08578426 -0.004201149
-0.085997045 0.038763814 -0.017769163 -0.11638246 -0.030480968 0.10835101 0.030116063 -0.023562806
-0.0022102764 -0.052527115 -0.12452507 -0.12743649 -0.0036529289 -0.039956793 -0.014434703 -0.059882335
-0.052564014 0.095693015 -0.08955948 0.010454082 -0.093445264 -0.111357346 0.0074649686 -0.068040416
0.08793804 0.057667803 0.015767856 0.0700969 -0.03562136 0.114141956 0.043502454 -0.033499792
0.027079413 -0.03463264 -0.10886427 -0.03941511 0.09896363 0.08512349 -0.11220468 0.06467073
0.14617991 0.038103916 0.029389927 0.0925685 -0.06906939 0.06231309 -0.06048908 -0.08872862
0.0015103121 0.03243605 0.08122607 -0.118788816 0.03029317 -0.08465726 0.08292155 -0.08194855
-0.04848993 -0.265395 -0.08477759 -0.13893895 -0.0782253 -0.14305095 -0.18742037 -0.14151487
-0.24351685 -0.20959376 -0.14648788 -0.25059733 -0.055323552 -0.12059214 -0.17090662 -0.1705488
-0.23598644 -0.123790115 -0.09264787 -0.26831162 -0.086069226 -0.14976098 -0.13112673 -0.21236071
-0.11218969 -0.18711403 -0.09555271 -0.16425101 -0.08814548 -0.09568061 -0.22265494 -0.2568236
-0.031221626 -0.18309236 -0.26443782 -0.15895359 -0.17518184 -0.1380277 -0.033003204 -0.04493153
-0.091599725 0.099336 -0.10772737 0.0012923523 -0.061714064 0.0747147 -0.024533834 0.10142851
0.106998466 0.06649209 0.08466437 0.0062908856 0.10923902 -0.122123025 -0.009652814 0.117620364
0.028914861 0.0046309554 -0.087609194 0.0039274003 0.054163292 0.10036895 -0.1057282 -0.11983493
-0.005241593 -0.04791909 0.09543628 0.073505156 0.08684016 -0.040759105 -0.06740827 -0.090248406
-0.06851521 -0.09816054 0.08181154 0.021826914 -0.0025126003 0.07697688 0.08123176 -0.08138435
-0.06361519 -0.047787555 0.0025603145 -0.008049362 0.018544564 0.007162642 0.0043741516 0.09973413
-0.042727068 0.054462243 0.0486298 0.007686539 -0.086365335 0.054280646 -0.06755733 0.11425714
0.058760434 0.08836429 -0.07735391 -0.085191764 -0.03899678 -0.09110809 -0.021307578 0.09498203
00000000: 96e0 21bd aa1f 54bc 44ff d6bd 1cad dc3d
00000010: efa7 b63d b3b2 fcbc 1493 653d f1d3 abbc
00000020: 664d 4e3c 984d d53d 6f02 ec3c b05f 853d
00000030: b3a7 27ba 7134 75bd d9a5 aebd 3b28 dc3d
00000040: 5a9f 95bd 083f 4cbd 01f4 cb3d b1a1 173c
00000050: ce74 fc3c 3a97 883d f367 693c c316 feba
00000060: 8c22 d83c 1841 0d3c f4f8 e13c 76b1 433d
00000070: ece9 d9bc acb5 4a3d f11e 933c a3db fc3c
00000080: d4ea 50bd 4b21 373d 1d88 933b ad55 483d
00000090: b6e4 bfbd e8c2 b4bd 53b8 213d 55cb 9abd
000000a0: f7a7 e5bd 0bad 413d 9446 183d 34c7 61bd
000000b0: 2afb cbbd d08a bd3d f209 8cbd 5746 9b3a
000000c0: 1b7d 76bc 398c 5e3c 5535 943d 4f75 eabc
000000d0: cc86 5fbd e4cc dc3d 501d b03d fbf9 5bbd
000000e0: 4d3e dfbc 2505 083d 83a7 57bd 6a1c fcbd
000000f0: 2c4c efbd 56ae 323d 71d2 623c 76eb eebd
00000100: b48b afbd 086f 1dbd 7153 9d3b 2b92 e2bd
00000110: f8ec e5b9 8a8e b13d dcc2 86bb 0074 b43d
00000120: 0cb2 f33d 526b bebd 37db 6cbd ae1b 183c
00000130: 6a75 863d b037 673d 0b90 31bd f642 e33d
00000140: 8e18 1e3e 8f96 88bd 0b6d a8bd 6dc7 f5bc
00000150: f3af 49bc 17f5 993d f391 b0bd 6250 ca3b
00000160: 2d75 bcbd 4d2c 00be be4c 893c 9f6d f1bb
00000170: 9849 883c 8352 77bd a8af afbd cba9 89bb
00000180: 381f b0bd cec6 1e3d a390 91bc ed59 eebd
00000190: 39b3 f9bc 22e7 dd3d f6b5 f63c c906 c1bc
000001a0: 49da 10bb ac26 57bd 0007 ffbd b67e 02be
000001b0: fa65 6fbb bca9 23bd 887f 6cbc 2e47 75bd
000001c0: 5d4d 57bd b3fa c33d f66a b7bd 9947 2b3c
000001d0: 3b60 bfbd 520f e4bd b29c f43b c658 8bbd
000001e0: dc18 b43d 1335 6c3d 972b 813c f78e 8f3d
000001f0: b4e7 11bd 42c3 e93d a12f 323d 1437 09bd
00000200: a5d5 dd3c f5da 0dbd 3bf4 debd bd71 21bd
00000210: 72ad ca3d 3955 ae3d 91cb e5bd 1672 843d
00000220: 30b0 153e da12 1c3d 25c3 f03c 8e94 bd3d
00000230: 4174 8dbd 033c 7f3d 66c3 77bd 5ab7 b5bd
00000240: aaf5 c53a aadb 043d db59 a63d 8d47 f3bd
00000250: 6229 f83c c960 adbd c6d2 a93d a4d4 a7bd
00000260: 609d 46bd dae1 87be e09f adbd 0346 0ebe
00000270: 9634 a0bd f37b 12be 20eb 3fbe 46e9 10be
00000280: 7b5c 79be bf9f 56be eb00 16be 4b4e 80be
00000290: f39a 62bd 03f9 f6bd 2502 2fbe 58a4 2ebe
000002a0: 6ea6 71be ac85 fdbd 2bbe bdbd 2460 89be
000002b0: 1045 b0bd f15a 19be 1646 06be 1675 59be
000002c0: b5c3 e5bd d29a 3fbe 24b1 c3bd 6b31 28be
000002d0: 9e85 b4bd 32f4 c3bd a8ff 63be 627e 83be
000002e0: 7fc4 ffbc 907c 3bbe 6564 87be bbc4 22be
000002f0: de62 33be 2257 0dbe 5e2e 07bd 200a 38bd
00000300: a398 bbbd ac70 cb3d 2ba0 dcbd 2664 a93a
00000310: e3c7 7cbd 0504 993d 2efb c8bc c0b9 cf3d
00000320: 0322 db3d 012d 883d 8364 ad3d c623 ce3b
00000330: b5b8 df3d a31b fabd d626 1ebc f2e2 f03d
00000340: dcde ec3c 45bf 973b 736c b3bd 6cb1 803b
00000350: 54da 5d3d 3c8e cd3d 0788 d8bd 046c f5bd
00000360: abc1 abbb cf46 44bd 1974 c33d df89 963d
00000370: 41d9 b13d 05f3 26bd 590d 8abd 28d4 b8bd
00000380: b451 8cbd 6508 c9bd cf8c a73d 5bce b23c
00000390: 70aa 24bb 0ea6 9d3d d65c a63d d7ac a6bd
000003a0: ae48 82bd e2bc 43bd f3ca 273b 79e1 03bc
000003b0: c5ea 973c 99b4 ea3b 0b55 8f3b 6841 cc3d
000003c0: 9402 2fbd cd13 5f3d 0b30 473d 5ddf fb3b
000003d0: 4fe0 b0bd 6255 5e3d 7f5b 8abd a6ff e93d
000003e0: c8ae 703d 56f8 b43d ba6b 9ebd 0579 aebd
000003f0: 16bb 1fbd e196 babd 3b8d aebc f085 c23d

conv1.lin_l.bias f4 [64]
-0.060071774 -0.022994876 0.02796766 -0.06645273 0.06191773 -0.056936126 0.07468176 0.06873215
-0.0998721 -0.009026461 0.0769684 -0.03830928 0.022016896 0.03677102 -0.037587408 -0.08785806
0.035969 0.08826222 0.11619776 0.030148769 0.09632701 0.055488586 0.06322705 0.11108443
0.09503461 0.011035097 0.11115819 -0.075225264 0.033350006 -0.0023746402 0.047677413 -0.10642458
-0.061076816 -0.027698888 -0.1167403 -0.0052018254 0.07087721 0.027907865 0.09184308 0.058395803
0.04926775 -0.040082693 0.11799007 0.024457794 -0.07573675 3.6002693e-05 -0.04189593 0.09226702
-0.053753447 -0.076582186 0.06367492 -0.07700775 -0.06842498 0.057562746 -0.041272305 0.11091658
-0.013381417 0.023672244 0.11736595 -0.0006036218 -0.08010185 -0.08322861 0.0035249314 0.0643133
00000000: d20d 76bd c05f bcbc 6f1c e53c 5e18 88bd
00000010: 729d 7d3d db35 69bd c0f2 983d 71c3 8c3d
00000020: be89 ccbd b9e3 13bc 9ca1 9d3d 31ea 1cbd
00000030: c75c b43c 369d 163d 41f5 19bd edee b3bd
00000040: 3b54 133d d3c2 b43d 17f9 ed3d 8dfa f63c
00000050: 1847 c53d 0048 633d 2f7d 813d 3c80 e33d
00000060: 81a1 c23d 8dcc 343c e8a6 e33d b40f 9abd
00000070: 049a 083d da9f 1bbb 6449 433d 21f5 d9bd
00000080: af2b 7abd c7e8 e2bc 8a15 efbd 1374 aabb
00000090: 1228 913d 099f e43c 3a18 bc3d 7030 6f3d
000000a0: fbcc 493d c02d 24bd c7a4 f13d b65b c83c
000000b0: df1b 9bbd 9901 1738 119b 2bbd 7ef6 bc3d
000000c0: 932c 5cbd 1fd7 9cbd ff67 823d 3db6 9dbd
000000d0: 6522 8cbd eac6 6b3d 260d 29bd 3b28 e33d
000000e0: bb3d 5bbc 4bec c13c 8f5d f03d 603c 1eba
000000f0: 700c a4bd c373 aabd 8902 673b b1b6 833d

conv1.lin_r.weight f4 [64, 66]
-0.105387405 -0.10368245 -0.033422187 0.028091649 -0.020923069 -0.018663663 -0.077231266 0.061447058
-0.108076364 0.13595372 -0.03384897 0.084398575 -0.07601451 -0.105748564 -0.05906147 0.017307756
0.096413225 -0.047585662 0.06584845 -0.036866874 -0.061686087 -0.028727155 -0.026900638 0.08974905
0.009009388 -0.1113175 -0.104724206 0.008167749 0.043439034 -0.051980287 -0.09233929 0.086109124
0.07057005 0.08107222 -0.053978 0.05731743 -0.10572034 0.08836025 -0.09557655 0.06035571
0.006262831 -0.0011864966 -0.019514339 -0.030551916 0.10775701 0.011178459 -0.101318784 0.09173849
0.019202642 -0.101457305 -0.067191824 0.04632028 -0.10730043 0.022686562 0.0091427835 0.010154928
0.017314393 0.045971427 -0.023712192 -0.021234985 0.10872283 0.069756344 -0.038660735 0.11468704
0.034142043 0.09840221 0.09296531 -0.047311384 0.0661921 -0.073667035 0.037199803 -0.034961518
-0.060917936 0.023031749 0.028124286 0.047805764 0.07869275 0.023488473 0.022957187 0.0820317
0.04943278 -0.037383497 -0.029057456 0.03680568 0.08456358 0.086125486 -0.034555078 0.032880813
-0.11303295 0.061727352 0.068006314 0.102286205 -0.04671839 0.10542872 0.026628742 -0.0149872275
-0.113670826 0.100707956 -0.08323222 -0.012926796 0.015008239 0.092502974 -0.07724847 -0.062329363
0.11010288 -0.026168976 0.03606964 0.016466415 -0.06616633 0.09390654 -0.0051705986 -0.050354015
0.03837654 -0.107436635 0.025804363 -0.03925993 -0.0965669 0.09366479 0.081928924 0.00060712424
0.039765973 0.07995215 0.058514655 0.06413551 0.015579687 0.030902127 -0.09408099 -0.047119565
-0.04392755 0.095878325 0.043235496 0.077358976 -0.058904093 -0.071870856 0.08683702 -0.07151064
0.067561485 -0.07669737 -0.03661473 0.13235672 0.10072781 -0.08587244 -0.021144684 0.030638896
0.03575367 -0.06844458 -0.0032800105 0.11540791 0.11706025 -0.08411268 -0.070398174 0.07912108
0.09545981 -0.12438919 -0.07920267 -0.015226794 -0.09574385 -0.124481894 -0.034805954 0.09686398
0.10962458 -0.05451877 0.022016227 -0.08295628 0.08866131 0.03908757 0.044256393 -0.0045322836
0.111439005 0.05457724 0.013512674 0.042027015 0.06421506 0.018444778 0.043796185 -0.0087303175
-0.08001183 -0.024287103 -0.038393505 0.085519806 -0.055214345 -0.11089216 0.018575536 -0.07602983
-0.011172395 0.015139761 0.03409 0.080404684 -0.09278313 -0.06611638 0.049840745 -0.028155958
0.017561365 -0.09558823 -0.11845679 0.097969085 -0.013869723 0.11497869 -0.0074063134 0.10727532
-0.093489766 0.09560892 -0.017821338 0.06498882 0.008534918 0.12666017 0.009825579 0.10923974
0.0039903517 -0.04772792 -0.009600324 0.09390321 -0.021027673 0.0763995 -0.04817038 0.02314061
0.08980737 0.052468676 0.10364489 -0.05161481 -0.10197586 -0.022120522 0.092352144 -0.048430502
-0.011243451 0.0046089333 0.07873491 -0.09805026 0.0867041 0.097256415 -0.034178793 0.064086586
0.11130654 0.04619775 0.020901958 0.036710512 0.04603436 0.09769231 -0.04149446 0.10284618
0.027709424 0.065168194 -0.04614939 0.007291919 -0.0413748 -0.07875659 -0.047114044 0.052325357
0.014332148 -0.057738833 0.10691159 -0.118972495 -0.09788276 0.0058634393 -0.07760903 0.09729269
00000000: 5ad5 d7bd 7757 d4bd b4e5 08bd 7520 e63c
00000010: db66 abbc 8ae4 98bc 6d2b 9ebd e9af 7b3d
00000020: 2457 ddbd 7437 0b3e 38a5 0abd 29d9 ac3d
00000030: 7fad 9bbd b492 d8bd 71ea 71bd ffc8 8d3c
00000040: 4c74 c53d 2fe9 42bd 8ddb 863d b801 17bd
00000050: 8daa 7cbd 3655 ebbc ba5e dcbc 5ace b73d
00000060: 1d9c 133c 6efa e3bd a579 d6bd 06d2 053c
00000070: 21ed 313d 48e9 54bd 621c bdbd fb59 b03d
00000080: 0887 903d 3109 a63d 0918 5dbd aec5 6a3d
00000090: e883 d8bd 38f6 b43d a3bd c3bd 8d37 773d
000000a0: 6f38 cd3b 3884 9bba 89dc 9fbc 0348 fabc
000000b0: b5af dc3d db25 373c 3980 cfbd 64e1 bb3d
000000c0: dc4e 9d3c d9c8 cfbd de9b 89bd 55ba 3d3d
000000d0: 54c0 dbbd 2bd9 b93c 9dcb 153c db60 263c
000000e0: ead6 8d3c 894c 3c3d 1240 c2bc fef4 adbc
000000f0: 13aa de3d 6adc 8e3d b85a 1ebd 0ae1 ea3d
00000100: 87d8 0b3d 1987 c93d 9964 be3d 95c9 41bd
00000110: b98f 873d bede 96bd d25e 183d cf33 0fbd
00000120: 1685 79bd 14ad bc3c e764 e63c facf 433d
00000130: aa29 a13d e66a c03c b610 bc3c 3c00 a83d
00000140: 077a 4a3d 701f 19bd e709 eebc 8dc1 163d
00000150: ac2f ad3d 8f62 b03d a089 0dbd 08ae 063d
00000160: d27d e7bd d2d5 7c3d e546 8b3d 6e7b d13d
00000170: c85b 3fbd 03eb d73d 8524 da3c fd8c 75bc
00000180: 40cc e8bd f93f ce3d a775 aabd eaca 53bc
00000190: 1ee5 753c 3372 bd3d 7234 9ebd 134d 7fbd
000001a0: 9e7d e13d 5260 d6bc c2bd 133d 93e4 863c
000001b0: 3682 87bd 1252 c03d 206e a9bb 0340 4ebd
000001c0: b830 1d3d bd07 dcbd ac63 d33c 05cf 20bd
000001d0: dec4 c5bd 53d3 bf3d 5aca a73d 6b27 1f3a
000001e0: a5e1 223d f4bd a33d 10ad 6f3d 7a59 833d
000001f0: f241 7f3c 7526 fd3c 89ad c0bd 7200 41bd
00000200: 60ed 33bd db5b c43d b417 313d 626e 9e3d
00000210: 6b45 71bd 0731 93bd 9cd7 b13d 2c74 92bd
00000220: ad5d 8a3d 8313 9dbd 54f9 15bd 8588 073e
00000230: 624a ce3d e4dd afbd 9e37 adbc 6cfe fa3c
00000240: 7172 123d ac2c 8cbd 72f5 56bb fb5a ec3d
00000250: 49bd ef3d 4543 acbd eb2c 90bd 3c0a a23d
00000260: 6f80 c33d c2bf febd 0235 a2bd ce79 79bc
00000270: 5a15 c4bd 5df0 febd b090 0ebd 9f60 c63d
00000280: da82 e03d 134f 5fbd 605b b43c fbe4 a9bd
00000290: 1094 b53d 4a1a 203d 3146 353d 8d83 94bb
000002a0: 223a e43d 628c 5f3d 4364 5d3c 8524 2c3d
000002b0: 2f83 833d 8119 973c a163 333d 9b09 0fbc
000002c0: 3edd a3bd bff5 c6bc 8242 1dbd 0225 af3d
000002d0: 7028 62bd 6e1b e3bd b92b 983c 87b5 9bbd
000002e0: 6c0c 37bc c30c 783c f5a1 0b3d 36ab a43d
000002f0: 1505 bebd 0668 87bd cf25 4c3d 53a7 e6bc
00000300: dadc 8f3c c3c3 c3bd 7999 f2bd 04a4 c83d
00000310: d63d 63bc f379 eb3d a9b0 f2bb 2ab3 db3d
00000320: 9077 bfbd 9cce c33d 0efe 91bc dc18 853d
00000330: 0ad6 0b3c 34b3 013e 77fb 203c 16b9 df3d
00000340: 7fc1 823b 5a7e 43bd ad4a 1dbc 5350 c03d
00000350: 3a42 acbc 5777 9c3d 4e4e 45bd 6091 bd3c
00000360: edec b73d 65e9 563d c643 d43d 0d6a 53bd
00000370: b8d8 d0bd 1936 b5bc 1f23 bd3d 105f 46bd
00000380: 7436 38bc 8906 973b c53f a13d 93ce c8bd
00000390: eb91 b13d 5f2e c73d 10ff 0bbd d43f 833d
000003a0: aff4 e33d da39 3d3d 953a ab3c c35d 163d
000003b0: 868e 3c3d e812 c83d 18f6 29bd 05a1 d23d
000003c0: e0fe e23c e776 853d 2507 3dbd 0df1 ee3b
000003d0: 9f78 29bd 234b a1bd a8fa 40bd 1d53 563d
000003e0: 63d1 6a3c 8e7f 6cbd 77f4 da3d daa7 f3bd
000003f0: c276 c8bd 1822 c03b 7cf1 9ebd 6441 c73d

conv2.lin_l.weight f4 [32, 64]
-0.015570963 0.044748023 -0.024136312 0.034241892 0.042878244 0.006880109 0.05913586 0.07101577
-0.016674807 0.08281814 0.086670876 0.044100646 -0.035147224 -0.046159033 0.07959325 0.10004733
-0.095280536 0.11902901 0.03968301 -0.0004064388 -0.08227187 0.063300736 -0.022037756 0.010699099
0.095632575 -0.12395428 -0.10634899 -0.06860631 -0.10307721 -0.06546283 -0.047368165 0.07585084
-0.09848534 0.026812248 0.008086838 0.044503283 0.048747938 0.04889213 -0.052178036 0.046331197
-0.030335415 0.08319309 0.0798741 -0.03353886 -0.04675572 -0.071677245 0.07140713 -0.11604098
0.05872305 0.11089392 -0.08242341 0.072996534 -0.07618595 0.06875106 -0.10947623 0.21369207
0.040977195 0.08771285 0.09518097 -0.054385986 0.069964625 -0.107877746 -0.0237317 -0.12419635
-0.11857138 -0.05398607 0.04093754 0.10664368 0.019146843 0.043515317 -0.0010946963 0.12409971
-0.0962891 -0.082806736 0.046276983 -0.07818238 -0.12086179 -0.053297095 -0.047367487 -0.07863133
-0.0050722444 -0.03755354 0.029605698 0.05922748 0.026457181 0.07746504 0.06406345 0.06331376
-0.11213325 -0.09244996 0.050125435 -0.097322516 0.09834574 -0.036092117 0.017491056 -0.075932495
0.0839022 -0.066496946 -0.11643527 0.01852788 0.07161805 -0.08549578 -0.08208011 0.039625987
0.070827566 -0.100026146 -0.06310341 0.002828582 0.015239623 -0.098896675 0.05277343 0.10489582
-0.031302337 0.021973146 -0.10457558 0.01706611 0.1270126 -0.10060911 -0.08136888 -0.19015184
0.044330813 -0.08932132 -0.023904381 -0.030474741 0.014534448 -0.011328828 0.11723224 -0.039707884
-0.10797447 0.007849497 -0.08655909 -0.108358316 -0.023867194 0.12312018 0.020984566 0.122297466
0.0031357268 0.076786354 0.007341798 0.058460098 -0.1536068 0.031713355 0.12903798 -0.1006492
0.124789864 0.09999874 -0.08342374 -0.07697733 -0.0071804156 0.060129248 -0.089302205 -0.09497659
0.010333037 -0.055412024 -0.075628854 -0.036673483 -0.06951256 -0.025603753 0.022405075 -0.07547271
-0.048270725 -0.0002885892 -0.050914776 -0.14485247 0.11073786 0.100144535 -0.052997015 0.11124374
-0.10027212 -0.022230847 0.08776464 -0.10120985 0.08181951 -0.07471155 0.06889977 -0.04240141
-0.049404517 -0.013211467 0.103930324 -0.09032468 0.072799735 0.032961283 0.13125329 -0.23000702
0.06491443 0.03091516 -0.06876453 0.022473982 0.10599797 -0.10666708 -0.017531961 -0.062350042
0.1339433 -0.012928438 0.07622443 0.010982686 -0.028785657 0.15473579 -0.0018752454 0.011736411
-0.028480915 -0.0871866 0.1586239 0.03392002 0.25007987 0.093741715 -0.08858626 -0.019445429
-0.05043558 -0.067496516 0.14233214 -0.01003087 -0.035320684 -0.034280486 -0.08813307 0.0003595665
-0.06668733 -0.021872394 -0.0152190495 -0.09280107 -0.08740396 -0.08041644 -0.0024036597 -0.029745584
-0.044290047 -0.0621612 -0.11102888 -0.006559828 -0.05196143 -0.05869074 -0.026473269 0.06378208
-0.0046443087 0.1189435 0.07304409 -0.015883522 0.06420565 0.0073781745 -0.035970554 -0.031026555
-0.122621454 -0.08695088 0.05899265 -0.07075686 0.06493768 0.06579038 -0.020066587 0.27796173
-0.05686599 0.047026455 -0.10175614 -0.04234444 -0.08490669 -0.035345394 0.0478254 -0.08367489
00000000: 5a1d 7fbc b449 373d 84b9 c5bc 3a41 0c3d
00000010: 19a1 2f3d 8a72 e13b 7238 723d b770 913d
00000020: 9b99 88bc 8f9c a93d 8080 b13d e1a2 343d
00000030: 89f6 0fbd 4111 3dbd c901 a33d 9de5 cc3d
00000040: 7122 c3bd 7bc5 f33d a78a 223d 4b17 d5b9
00000050: 277e a8bd d1a3 813d 8688 b4bc 464b 2f3c
00000060: 03db c33d bedb fdbd 80cd d9bd 7781 8cbd
00000070: 251a d3bd 6011 86bd 1f05 42bd af57 9b3d
00000080: afb2 c9bd 5ca5 db3c a87e 043c 1349 363d
00000090: ebab 473d 1d43 483d a3b8 55bd c8c5 3d3d
000000a0: fa81 f8bc 2461 aa3d 0895 a33d 0b60 09bd
000000b0: ed82 3fbd 85cb 92bd e73d 923d e5a6 edbd
000000c0: 9587 703d 5a1c e33d 9bcd a8bd 357f 953d
000000d0: 6107 9cbd 5bcd 8c3d 1335 e0bd 18d2 5a3e
000000e0: b4d7 273d cba2 b33d 3eee c23d d7c3 5ebd
000000f0: 9d49 8f3d 02ef dcbd fb68 c2bc a85a febd
00000100: 8dd5 f2bd 7f20 5dbd 1fae 273d 0068 da3d
00000110: d7d9 9c3c 1e3d 323d ea7b 8fba fd27 fe3d
00000120: 3833 c5bd 9496 a9bd ef8c 3d3d 151e a0bd
00000130: 6386 f7bd 0e4e 5abd 6904 42bd 7609 a1bd
00000140: 1235 a6bb bed1 19bd a687 f23c 8498 723d
00000150: bbbc d83c fea5 9e3d b333 833d a5aa 813d
00000160: 1ea6 e5bd 6856 bdbd 5450 4d3d 0751 c7bd
00000170: 7e69 c93d 54d5 13bd 6749 8f3c 7f82 9bbd
00000180: ebd4 ab3d 8d2f 88bd 9d75 eebd c8c7 973c
00000190: 7cac 923d 6918 afbd 9e19 a8bd dc4e 223d
000001a0: 0b0e 913d 82da ccbd 5c3c 81bd bb5f 393b
000001b0: 9daf 793c 578a cabd f428 583d 9fd3 d63d
000001c0: e136 00bd 0701 b43c b92b d6bd 3ace 8b3c
000001d0: 970f 023e 260c cebd baa4 a6bd 2ab7 42be
000001e0: 3a94 353d 19ee b6bd 1fd3 c3bc 2aa6 f9bc
000001f0: e521 6e3c 8c9c 39bc 7517 f03d bca4 22bd
00000200: b821 ddbd 2d9b 003c e445 b1bd f7ea ddbd
00000210: 2285 c3bc 6f26 fc3d d3e7 ab3c 1877 fa3d
00000220: c480 4d3b 2a42 9d3d 7793 f03b db73 6f3d
00000230: 1a4b 1dbe dde5 013d 8822 043e 2b21 cebd
00000240: d491 ff3d 24cc cc3d 11da aabd 4aa6 9dbd
00000250: b149 ebbb 164a 763d 13e4 b6bd 1683 c2bd
00000260: e64b 293c b8f7 62bd 4de3 9abd ef36 16bd
00000270: 9a5c 8ebd f6be d1bc d98a b73c 7091 9abd
00000280: 86b7 45bd c94d 97b9 038c 50bd 3554 14be
00000290: 88ca e23d 9418 cd3d 6613 59bd c2d3 e33d
000002a0: 785b cdbd 771d b6bc f3bd b33d 1c47 cfbd
000002b0: fd90 a73d 5e02 99bd 531b 8d3d 1aad 2dbd
000002c0: 645c 4abd e974 58bc 6cd9 d43d 25fc b8bd
000002d0: 0718 953d 6902 073d 4367 063e f686 6bbe
000002e0: dbf1 843d ca41 fd3c 6bd4 8cbd 5b1b b83c
000002f0: 7715 d93d 4574 dabd 309f 8fbc c262 7fbd
00000300: 6f28 093e cdd1 53bc 8e1b 9c3d b9f0 333c
00000310: e6cf ebbc 0f73 1e3e cbca f5ba 134a 403c
00000320: cf50 e9bc e38e b2bd 4e6e 223e b8ef 0a3d
00000330: 780a 803e a8fb bf3d b76c b5bd 054c 9fbc
00000340: 8a95 4ebd 9d3b 8abd 84bf 113e 8558 24bc
00000350: 6cac 10bd b269 0cbd 1c7f b4bd 3384 bc39
00000360: 5e93 88bd bc2d b3bc 5259 79bc 7d0e bebd
00000370: d900 b3bd 60b1 a4bd b886 1dbb 03ad f3bc
00000380: 7b69 35bd be9c 7ebd 1c63 e3bd d3f3 d6bb
00000390: 82d5 54bd b465 70bd 78de d8bc 2ea0 823d
000003a0: 492f 98bb a698 f33d 2498 953d 291e 82bc
000003b0: 407e 833d 9dc4 f13b dc55 13bd 672b febc
000003c0: f520 fbbd 4e13 b2bd 47a2 713d f9e8 90bd
000003d0: 0cfe 843d 1bbd 863d af62 a4bc 0051 8e3e
000003e0: 50ec 68bd d09e 403d 8665 d0bd 5d71 2dbd
000003f0: 8fe3 adbd 55c6 10bd 91e4 433d be5d abbd

conv2.lin_l.bias f4 [32]
-0.057206884 -0.04368996 0.0049100644 -0.008603784 0.018839562 -0.02432636 0.08475532 0.035298392
0.036896523 -0.013519637 -0.037777755 -0.014946074 0.009996568 -0.027201438 -0.0774551 0.11756949
-0.036297727 -0.07658189 0.0040655253 0.022139218 0.08174582 -0.12091031 0.048335366 0.024277555
0.09163604 0.021561567 -0.0130477995 0.069748685 0.029061388 0.06612693 -0.026649171 0.057419445
00000000: c451 6abd 3ef4 32bd 9be4 a03b e3f6 0cbc
00000010: 6d55 9a3c 1348 c7bc 3294 ad3d 0c95 103d
00000020: cf20 173d 7881 5dbc d9bc 1abd 61e0 74bc
00000030: a5c8 233c 8dd5 debc c8a0 9ebd 46c8 f03d
00000040: edac 14bd f7d6 9cbd 1938 853b 4e5d b53c
00000050: 5a6a a73d d39f f7bd 4efb 453d b9e1 c63c
00000060: adab bb3d e2a1 b03c 70c6 55bc 66d8 8e3d
00000070: 2612 ee3c 8e6d 873d 5d4f dabc a730 6b3d

conv2.lin_r.weight f4 [32, 64]
0.13594227 0.09218352 0.03683283 0.058106825 -0.047091447 -0.032782782 0.07128638 -0.09577158
0.102441885 -0.0561382 -0.040234953 0.0756072 -0.067470334 -0.0214421 0.100974776 0.07030757
-0.07875265 0.10470878 -0.011884527 -0.0029065525 -0.016974129 -0.0455817 -0.03684673 0.070601135
-0.00091785874 0.0030944697 -0.017771551 0.07232776 -0.020231094 -0.060216337 0.03866678 -0.081355944
0.08101812 0.059321444 0.0065336586 0.006649022 0.015470401 -0.030813618 -0.117515475 -0.037824847
0.09781256 0.0865748 -0.096975975 0.027169999 -0.052308843 -0.035941783 -0.06869339 -0.04318411
0.009584636 0.113709375 0.052483328 -0.104132175 -0.10945121 0.08404795 0.09154201 -0.093608834
0.10669353 0.060506906 -0.07496342 -0.11187565 0.070691794 0.035696402 -0.013097034 -0.012948605
0.09791926 0.13589421 0.05309171 0.044193525 0.08517762 -0.084908284 -0.06851935 -0.0077129737
0.040331703 -0.012657972 0.068133265 -0.07082917 0.076858096 0.07210961 -0.004493849 0.03975242
-0.0295659 0.055151273 -0.097594045 0.03774872 0.121569924 -0.072060555 0.04472425 -0.10883197
0.029077329 0.08287501 -0.10528074 -0.08418099 0.0237223 0.12007277 0.09104461 -0.06734668
0.011363775 0.019213393 0.10213293 -0.15552115 -0.040367592 -0.07193942 -0.10773644 0.04644783
-0.12637825 -0.1222287 0.09624519 -0.14288794 -0.0016269315 -0.029505065 0.05387727 0.05175654
-0.09266257 -0.069187276 -0.076512285 0.0012274717 -0.06800348 0.03398267 -0.021695169 -0.0908067
0.07831758 -0.1302869 -0.11469155 0.052857418 0.12617236 0.009428348 0.10209155 0.0932912
0.015910624 -0.008855496 0.025248121 0.0027539248 0.06884184 0.022710185 -0.06492959 -0.11216606
-0.07946267 -0.12890898 0.033754528 -0.08426112 -0.023755701 -0.07750396 -0.012746045 -0.037763417
0.08270361 -0.061831538 0.05889058 -0.043252952 0.032077845 0.045130916 -0.041345786 0.11576153
-0.06902601 0.09215485 0.02014429 0.03707148 -0.096052475 -0.0022408569 -0.05876787 0.13212919
-0.050950985 -0.08024271 0.04608861 -0.024045452 -0.0365958 0.09588579 -0.059723403 -0.06014596
0.09270881 -0.010050501 -0.035788663 -0.009445415 -0.11534155 -0.11858319 0.03592467 -0.040687565
-0.023946032 0.13109985 -0.069930464 0.021674247 0.013664288 -0.02333563 -0.0071570706 -0.18367541
-0.032189224 0.09278736 -0.05888146 0.111819424 0.06837475 0.016540887 -0.021459123 -0.035572387
-0.066128835 0.091324605 -0.12034781 0.052639645 -0.014314799 -0.027267369 -0.05312623 -0.093938895
0.070778474 -0.07255056 0.009229121 -0.019122597 0.044016004 0.12394699 -0.004809395 0.0823401
-0.104683936 -0.10043903 0.020749815 0.110746175 -0.12028161 0.011016696 -0.01556285 0.060279872
-0.12056694 -0.062474072 -0.0021993334 -0.10108144 -0.0753422 -0.06636995 -0.08167658 -0.0790043
-0.0658077 -0.056201126 0.084727235 -0.027326772 -0.113086924 0.07917928 -0.09098381 0.10455328
-0.022423426 -0.09543676 -0.07876609 -0.04885296 0.11106937 -0.05397414 0.11365456 -0.010945905
-0.008940748 0.046353433 0.02734901 -0.05584175 -0.040002614 0.11987931 0.11331554 0.15073535
0.019550428 -0.050519023 0.09216458 -0.06867965 -0.0319478 -0.06614044 -0.029146582 0.11254298
00000000: 7334 0b3e b7ca bc3d 06de 163d 6c01 6e3d
00000010: f6e2 40bd 3d47 06bd 98fe 913d e423 c4bd
00000020: 0dcd d13d 2bf1 65bd 68cd 24bd f3d7 9a3d
00000030: e32d 8abd 58a7 afbc ddcb ce3d 6afd 8f3d
00000040: 1249 a1bd 8f71 d63d 52b7 42bc dc7b 3ebb
00000050: 540d 8bbc e0b3 3abd 99ec 16bd 5497 903d
00000060: 759c 70ba 96cc 4a3b a595 91bc 9420 943d
00000070: aebb a5bc 68a5 76bd 0f61 1e3d f29d a6bd
00000080: d4ec a53d 0bfb 723d 4d18 d63b 0ae0 d93b
00000090: 9177 7d3c d76c fcbc f4ab f0bd 3aee 1abd
000000a0: f451 c83d 214e b13d 579b c6bd 9e93 de3c
000000b0: cc41 56bd b137 13bd 1faf 8cbd d2e1 30bd
000000c0: e108 1d3c 76e0 e83d c2f8 563d 4043 d5bd
000000d0: f527 e0bd 5521 ac3d 617a bb3d fdb5 bfbd
000000e0: 2382 da3d 17d6 773d 6c86 99bd 101f e5bd
000000f0: dcc6 903d 6436 123d f194 56bc 6326 54bc
00000100: e589 c83d da27 0b3e b176 593d 4504 353d
00000110: 9b71 ae3d 65e4 adbd df53 8cbd 1dbd fcbb
00000120: db32 253d 6263 4fbc 7489 8b3d e20e 91bd
00000130: c767 9d3d 34ae 933d 2341 93bb 6fd3 223d
00000140: 3034 f2bc 4de6 613d 63df c7bd 679e 1a3d
00000150: a7f9 f83d 7c94 93bd c630 373d 4ce3 debd
00000160: 9433 ee3c 60ba a93d 6e9d d7bd 1567 acbd
00000170: 4555 c23c b6e8 f53d 9975 ba3d 0eed 89bd
00000180: 202f 3a3c 6865 9d3c 122b d13d f040 1fbe
00000190: 7d58 25bd fa54 93bd eca4 dcbd 1440 3e3d
000001a0: 4d69 01be 0a53 fabd 331c c53d 3751 12be
000001b0: c33e d5ba 9bb4 f1bc 6aae 5c3d aafe 533d
000001c0: e0c5 bdbd 0fb2 8dbd 79b2 9cbd 1ee3 a03a
000001d0: 6945 8bbd 6a31 0b3d 11ba b1bc ddf8 b9bd
000001e0: f864 a03d ee69 05be 67e3 eabd 0581 583d
000001f0: 5433 013e 5c79 1a3c 6015 d13d 750f bf3d
00000200: ff56 823c a416 11bc 26d5 ce3c 317b 343b
00000210: f3fc 8c3d b60a ba3c cef9 84bd 52b7 e5bd
00000220: 53bd a2bd b700 04be 3042 0a3d 1891 acbd
00000230: 519b c2bc 65ba 9ebd cad4 50bc d0ad 1abd
00000240: 8360 a93d 1143 7dbd 4037 713d 022a 31bd
00000250: 0f64 033d 32db 383d 335a 29bd 6214 ed3d
00000260: 825d 8dbd afbb bc3d a305 a53c 44d8 173d
00000270: 29b7 c4bd 57db 12bb 94b6 70bd e04c 073e
00000280: fbb1 50bd 4a56 a4bd 69c7 3c3d f8fa c4bc
00000290: 7ae5 15bd c55f c43d 87a0 74bd 9c5b 76bd
000002a0: 1ede bd3d dbaa 24bc 2297 12bd f1c0 1abc
000002b0: 3138 ecbd bedb f2bd bf25 133d 01a8 26bd
000002c0: 782a c4bc 0a3f 063e b437 8fbd 318e b13c
000002d0: 2ee0 5f3c 5d2a bfbc dc85 eabb 6815 3cbe
000002e0: d9d8 03bd 4d07 be3d b02d 71bd 9501 e53d
000002f0: 1008 8c3d c180 873c 0bcb afbc 5ab4 11bd
00000300: 8e6e 87bd 6508 bb3d ea78 f6bd ab9c 573d
00000310: 9e88 6abc d15f dfbc e49a 59bd 0963 c0bd
00000320: 4ef4 903d 6395 94bd bd35 173c fea6 9cbc
00000330: 204a 343d ebd7 fd3d 2198 9dbb eda1 a83d
00000340: 8864 d6bd fab2 cdbd 84fb a93c e4ce e23d
00000350: 3456 f6bd 5f7f 343c 53fb 7ebc 07e8 763d
00000360: cdeb f6bd d0e4 7fbd b122 10bb c903 cfbd
00000370: 034d 9abd f8ec 87bd 0d46 a7bd 02cd a1bd
00000380: 30c6 86bd 2733 66bd 7985 ad3d 65dc dfbc
00000390: 1e9a e7bd bf28 a23d b855 babd 0820 d63d
000003a0: 55b1 b7bc 5974 c3bd 1e50 a1bd 0b1a 48bd
000003b0: 5678 e33d fd13 5dbd b9c3 e83d 7456 33bc
000003c0: 377c 12bc 19dd 3d3d 080b e03c 52ba 64bd
000003d0: c8d9 23bd 4983 f53d fa11 e83d 5e5a 1a3e
000003e0: 3828 a03c 09ed 4ebd c9c0 bc3d eba7 8cbd
000003f0: b2db 02bd a474 87bd d0c4 eebc ef7c e63d

fc.weight f4 [1, 64]
-0.071470045 0.10208671 0.020769417 0.002594112 0.07575674 0.08828926 0.085328855 0.026781967
0.046947815 -0.029597282 -0.00602112 0.084448315 -0.08296021 0.010550904 0.031781066 0.07839489
0.10371668 -0.09485264 -0.042628143 -0.07650755 -0.097571544 0.085694246 0.037876323 0.043802496
-0.003751029 0.023282193 -0.093158424 0.054147143 0.063680544 0.055447347 -0.0032335958 -0.08622168
0.038704358 -0.110370465 -0.039199695 0.0679608 0.007199977 0.10355562 -0.046032485 -0.0573173
0.08581421 -0.027444905 0.03296216 0.11685233 -0.09626261 -0.020406205 -0.014052121 -0.03517207
-0.08681631 0.036121927 0.033935245 0.013564183 0.05000981 -0.014083103 -0.033878144 -0.0069980007
0.010687322 -0.02076258 -0.004112669 -0.003968626 -0.0013771933 -0.08187986 -0.053095374 -0.036685582
00000000: e35e 92bd d612 d13d a024 aa3c fa01 2a3b
00000010: 5a26 9b3d 00d1 b43d e5c0 ae3d db65 db3c
00000020: 5a4c 403d 0076 f2bc d14c c5bb 3df3 ac3d
00000030: 0be7 a9bd b3dd 2c3c dd2c 023d 808d a03d
00000040: 6969 d43d 1a42 c2bd d99a 2ebd feaf 9cbd
00000050: 97d3 c7bd 7780 af3d 3424 1b3d 3f6a 333d
00000060: d3d3 75bb 4cba be3c d8c9 bebd 65c9 5d3d
00000070: f26a 823d c21c 633d bcea 53bb fe94 b0bd
00000080: 7688 1e3d e909 e2bd dc8f 20bd 082f 8b3d
00000090: c9ed eb3b f814 d43d 8f8c 3cbd 8cc5 6abd
000000a0: 5cbf af3d 23d4 e0bc 5403 073d 4650 ef3d
000000b0: 5525 c5bd ea2a a7bc de3a 66bc 9710 10bd
000000c0: c0cc b1bd 96f4 133d afff 0a3d 4f3c 5e3c
000000d0: 16d7 4c3d d1bc 66bc cfc3 0abd 7c4f e5bb
000000e0: e119 2f3c 4916 aabc 91c3 86bb 3f0b 82bb
000000f0: f082 b4ba a1b0 a7bd 897a 59bd 9f43 16bd
