uniRecommendation/model_weights.pth (torch, 54216 bytes, 7 tensors)

conv1.lin_l.weight f4 [64, 66]
0.037576478 0.012536572 -0.026345666 0.010662678 -0.118880644 -0.06060285 0.0673517 0.012292927
-0.10630137 0.07875483 -0.0987443 0.03727965 0.10729919 -0.07876918 -0.024195556 -0.042938806
-0.05452532 0.085212365 0.054082464 0.046194494 0.07935939 -0.028859021 -0.02201577 0.062337853
0.078408025 -0.08665162 -0.08688359 0.11131773 -0.060756087 -0.00057533826 0.05851547 -0.10455899
0.123416774 -0.07641677 -0.07935171 -0.027407572 0.035630703 -0.11079587 0.03140024 -0.10023732
-0.0869428 0.015487698 0.08978852 0.106048286 -0.096219584 0.12431124 -0.118454106 0.051082052
-0.0828611 0.020002374 0.062058244 0.045444973 0.044231307 -0.0063286116 0.0833163 0.06286325
-0.03064327 0.07600493 0.07613526 0.038684554 -0.02850387 -0.09174712 0.015813982 -0.073272966
-0.08414334 -0.07416978 0.09290339 0.02999285 0.10827391 0.08648292 -0.053623382 -0.045134332
0.017869461 0.034950107 -0.114460185 0.0029011676 -0.100717224 -0.095319495 -0.114229254 0.11086998
0.08824687 0.060297124 -0.08396498 0.09957227 -0.00015449725 0.031429525 0.072237514 0.005550104
0.09326169 -0.024523 -0.10411903 -0.110544756 0.0343353 0.115223184 -0.08621644 0.0869116
0.0328844 0.063458495 -0.115315765 -0.03796275 0.027648557 -0.07139525 0.044324636 0.051710956
-0.004456343 0.057455033 0.03197356 0.023944117 -0.05983678 -0.033734914 -0.020395828 0.11085108
0.08487604 -0.0832895 -0.048905008 -0.088215515 0.08696444 -0.08481785 0.059481338 0.07148959
-0.098636374 -0.1055521 -0.09504321 0.06836451 -0.0018144245 -0.0021821493 -0.06598734 0.054415468
-0.026520977 -0.08287953 0.0843786 -0.06337266 0.10655592 0.10588125 -0.1063889 -0.12644131
0.068677135 -0.04790923 0.017093485 -0.11322762 0.10682043 -0.04244312 0.070596136 0.10958776
-0.042037703 0.053988956 -0.022431286 -0.114953205 -0.07418947 0.00076327217 -0.030338248 -0.011246458
0.047707714 -0.048871294 0.036175013 -0.064499654 0.009507506 0.023367157 0.06654539 0.06705521
-0.08327632 0.025797835 -0.015814023 0.09931919 -0.011151001 -0.00040066586 -0.04131747 0.1009463
-0.11514667 -0.00452594 -0.113596626 -0.023774253 0.06662886 0.07344883 -0.028408285 0.013148707
-0.112637326 0.02646008 0.046644643 0.11115388 0.033774916 0.067422085 0.019991871 -0.039420724
0.018881725 0.021357337 -0.12829538 -0.06709651 0.001039309 -0.12893276 0.000242509 0.0895097
-0.017667718 0.04635617 -0.02010466 -0.028722068 0.052592047 0.11611102 0.06467868 0.046473384
0.051491972 -0.12034785 0.0933913 -0.00932343 -0.026211822 0.11854087 0.111856595 0.0065106396
-0.0200196 -0.11176349 -0.072593704 0.07635573 -0.013059266 -0.11685089 -0.005563546 0.1178652
-0.063575126 0.09454801 -0.08008327 0.007333491 0.09730796 0.034462407 -0.025546243 -0.08421807
-0.111645274 0.056597088 -0.0006101568 0.014084217 0.04982306 0.0015480584 -0.065237194 -0.12814546
-0.08780786 0.05732635 -0.09387046 -0.09498185 -0.00020238949 0.098102555 0.044594385 0.090706035
0.008086357 -0.09595174 -0.06387935 0.08268279 0.064295515 -0.05007565 -0.054292683 -0.04557635
-0.04566635 0.062490165 0.08422875 -0.050736394 -0.08203344 -0.0072541665 0.10353063 -0.09965064
00000000: cbe9 193d 3266 4d3c ded2 d7bc 83b2 2e3c
00000010: b277 f3bd b23a 78bd b0ef 893d 4668 493c
00000020: 88b4 d9bd 364a a13d 743a cabd 8cb2 183d
00000030: adbf db3d bc51 a1bd c235 c6bc 9ae0 2fbd
00000040: f155 5fbd d283 ae3d 9385 5d3d 7036 3d3d
00000050: 2d87 a23d c169 ecbc 6b5a b4bc fa55 7f3d
00000060: 6394 a03d 6876 b1bd 06f0 b1bd 8dfa e33d
00000070: 60db 78bd 4cd2 16ba ebad 6f3d 0623 d6bd
00000080: efc1 fc3d 6580 9cbd 2683 a2bd d885 e0bc
00000090: 80f1 113d f2e8 e2bd 8a9d 003d 3949 cdbd
000000a0: 110f b2bd 1dc0 7d3c 0be3 b73d d82f d93d
000000b0: c60e c5bd e496 fe3d 1198 f2bd 6a3b 513d
000000c0: 15b3 a9bd 05dc a33c c930 7e3d 8224 3a3d
000000d0: e32b 353d 3e60 cfbb bca1 aa3d 73be 803d
000000e0: 9807 fbbc 79a8 9b3d ceec 9b3d b273 1e3d
000000f0: f380 e9bc eae5 bbbd 538c 813c 2310 96bd
00000100: 5853 acbd 53e6 97bd 2244 be3d 91b3 f53c
00000110: b6be dd3d f51d b13d 31a4 5bbd c7de 38bd
00000120: fa62 923c d827 0f3d 1a6a eabd 8421 3e3b
00000130: d544 cebd de36 c3bd 07f1 e9bd cd0f e33d
00000140: c6ba b43d 1efa 763d d5f5 abbd 8cec cb3d
00000150: 8a00 22b9 3fbc 003d 43f1 933d a6dd b53b
00000160: fcff be3d 75e4 c8bc 5c3c d5bd 4a65 e2bd
00000170: 2ca3 0c3d 22fa eb3d 3f92 b0bd b5fe b13d
00000180: cbb1 063d 87f6 813d ac2a ecbd d47e 1bbd
00000190: 3a7f e23c ac37 92bd c08d 353d dece 533d
000001a0: 8406 92bb f855 6b3d b5f6 023d 7426 c43c
000001b0: 6917 75bd 9f2d 0abd 2715 a7bc e405 e33d
000001c0: 7dd3 ad3d af93 aabd 9e50 48bd 56aa b4bd
000001d0: 6a1a b23d fbb4 adbd b4a2 733d 2269 923d
000001e0: de01 cabd b32b d8bd 04a6 c2bd b102 8c3d
000001f0: fcd1 edba 6402 0fbb 5f24 87bd c1e2 5e3d
00000200: 8542 d9bc bebc a9bd b0ce ac3d 86c9 81bd
00000210: fd39 da3d 45d8 d83d 6ce2 d9bd d579 01be
00000220: 99a6 8c3d 783c 44bd a307 8c3c e2e3 e7bd
00000230: abc4 da3d d6d8 2dbd b594 903d 8c6f e03d
00000240: ba2f 2cbd 8623 5d3d d1c1 b7bc 966c ebbd
00000250: a6f0 97bd 5416 483a eb87 f8bc 1043 38bc
00000260: 2a69 433d 442d 48bd 402c 143d 6518 84bd
00000270: 5fc5 1b3c 7b6c bf3c f348 883d 3e54 893d
00000280: c68c aabd fb55 d33c 698c 81bc dc67 cb3d
00000290: b0b2 36bc 7610 d2b9 823c 29bd efbc ce3d
000002a0: 04d2 ebbd 564e 94bb 59a5 e8bd 39c2 c2bc
000002b0: b674 883d 576c 963d 7eb8 e8bc ad6d 573c
000002c0: 66ae e6bd cfc2 d83c 740e 3f3d a5a4 e33d
000002d0: 9157 0a3d 9714 8a3d fec5 a33c a077 21bd
000002e0: d9ad 9a3c 95f5 ae3c dd5f 03be e569 89bd
000002f0: 6c39 883a f306 04be 044a 7e39 dd50 b73d
00000300: e4bb 90bc f8df 3d3d 87b2 a4bc 8b4a ebbc
00000310: c26a 573d 9dcb ed3d 4176 843d e05a 3e3d
00000320: 3fe9 523d ef78 f6bd f043 bf3d 4dc1 18bc
00000330: 2dba d6bc 8ec5 f23d 1215 e53d 3457 d53b
00000340: 2500 a4bc 42e4 e4bd 02ac 94bd 6560 9c3d
00000350: 88f6 55bc 854f efbd 684e b6bb 4f63 f13d
00000360: ad33 82bd 63a2 c13d b302 a4bd c84d f03b
00000370: 6549 c73d 7428 0d3d 5b46 d1bc 867a acbd
00000380: 47a6 e4bd 59d2 673d eef2 1fba 7dc1 663c
00000390: 4413 4c3d 38e8 ca3a 149b 85bd 9038 03be
000003a0: 9bd4 b3bd 09cf 6a3d 283f c0bd d885 c2bd
000003b0: 8438 54b9 fee9 c83d 9aa8 363d 16c4 b93d
000003c0: a47c 043c 5982 c4bd 2dd3 82bd 9855 a93d
000003d0: 5ead 833d 201c 4dbd 0162 5ebd 44ae 3abd
000003e0: a30c 3bbd b0f5 7f3d 1f80 ac3d f7d0 4fbd
000003f0: 2601 a8bd 5cb4 edbb de07 d43d a215 ccbd

conv1.lin_l.bias f4 [64]
-0.0032463695 0.0647008 0.037447892 0.121185645 -0.031982183 0.058891807 -0.08442356 0.017389031
-0.022892145 0.05825816 -0.030153241 0.020602437 0.052870363 -0.073082775 -0.01356806 -0.036221534
-0.034006998 -0.06464085 0.09884298 -0.06603572 -0.12549421 -0.0033322747 -0.108283974 -0.08071302
0.062513374 0.03625859 -0.03323451 0.057154212 0.04442612 0.054501936 -0.013246699 -0.096179575
0.092600964 -0.10621591 0.0730807 0.022474673 0.080935575 -0.042886328 0.09396207 0.060474925
-0.07348361 -0.05820194 0.020363798 0.061092727 -0.06873885 -0.070603155 -0.10277178 -0.11530454
-0.094776765 -0.010717322 -0.07405254 0.03145583 0.08102368 0.04543265 -0.1155762 -0.042439163
0.019110382 0.08721564 0.08802499 0.07992418 -0.086897105 0.04809398 -0.026213966 0.08219763
00000000: 0bc1 54bb da81 843d f662 193d 2e30 f83d
00000010: c0ff 02bd 8938 713d 42e6 acbd 7173 8e3c
00000020: 4f88 bbbc 1ca0 6e3d ee03 f7bc 71c6 a83c
00000030: 988e 583d 6cac 95bd 914c 5ebc 085d 14bd
00000040: ec4a 0bbd 6c62 84bd 306e ca3d bc3d 87bd
00000050: 8e81 00be 4b62 5abb fdc3 ddbd de4c a5bd
00000060: 0307 803d e383 143d e920 08bd 891a 6a3d
00000070: 2af8 353d 6c3d 5f3d af08 59bc ccf9 c4bd
00000080: 93a5 bd3d ba87 d9bd 56ab 953d ce1c b83c
00000090: 8dc1 a53d 93a9 2fbd 306f c03d 8eb4 773d
000000a0: 937e 96bd 2865 6ebd fbd1 a63c 5e3c 7a3d
000000b0: f4c6 8cbd 6398 90bd 037a d2bd c924 ecbd
000000c0: 521a c2bd b597 2fbc dca8 97bd d4d7 003d
000000d0: beef a53d 9617 3a3d 37b3 ecbd b0d4 2dbd
000000e0: 608d 9c3c 1d9e b23d 7246 b43d 4aaf a33d
000000f0: 1cf7 b1bd 31fe 443d acbe d6bc 3b57 a83d

conv1.lin_r.weight f4 [64, 66]
0.0060135773 -0.0041062157 -0.019869167 0.055469688 0.06434727 0.078305654 -0.045174804 0.08551619
0.04115735 0.07571244 -0.04004974 -0.056785986 0.030444052 0.083341055 -0.08808899 0.0737363
-0.018283023 0.12265879 0.109858215 -0.013559333 0.027012179 -0.06767305 0.0014674625 0.10197921
0.12201292 0.11169325 0.023323694 -0.04083231 0.015867354 -0.032993123 -0.11351577 -0.04176502
0.07922454 -0.07720977 0.080366895 0.098749086 0.053629942 0.01646058 0.019272335 -0.061025042
-0.0060635805 -0.036072113 0.06532986 0.03860354 -0.008495335 0.012528374 -0.06628593 -0.019532697
-0.1140018 0.04478433 -0.0774441 0.009607484 -0.026058668 -0.037935693 -0.043129828 0.09424893
0.07369135 0.05303491 -0.093121886 0.077295534 -0.09073598 0.06236179 0.039882876 -0.06838083
0.08809387 0.077722326 -0.017585052 -0.014776888 -0.061307617 -0.0060853567 0.021596335 0.07721132
-0.007413801 0.0870759 0.07090368 0.113973506 -0.11879931 0.02569708 0.04983083 -0.06798986
0.10834401 0.0030864496 -0.060993057 -0.039637297 0.070840515 -0.060916577 0.012447572 0.018612392
0.059388272 0.0786808 -0.09554778 0.005535613 0.08940686 0.090932645 -0.021113781 0.12431543
0.036488783 -0.0970933 0.007870055 0.07566084 0.11192217 0.012889953 -0.071454465 -0.09690436
-0.116729915 0.033251557 -0.10174114 -0.049983762 0.004082131 0.030697994 0.118724145 -0.012916131
0.089383066 0.03481975 0.10728541 0.080890596 0.037737727 -0.06997424 0.03490158 -0.063822165
0.011273248 -0.09463132 0.08977615 -0.056496482 0.08534239 -0.015512278 0.063283235 0.030976426
-0.12249913 0.0870104 -0.06752248 0.06961797 -0.062639445 0.13030322 -0.10825881 0.093896754
0.057586774 0.0022176704 -0.107210584 -0.020305343 -0.13232517 0.0740916 0.062180504 -0.061108712
0.08846654 0.06962194 0.048395198 -0.010547854 -0.1018784 0.04484156 0.03119102 -0.10299547
-0.038864758 -0.08017468 0.105590165 -0.034315247 0.016961388 -0.013360244 -0.080444366 0.10186548
0.032304473 0.018108908 0.091739215 -0.0025127174 0.0637151 -0.034191236 0.035024762 0.051344935
0.10838552 -0.028850464 0.081091695 0.04488294 0.11648831 0.05889581 -0.071723804 -0.028409597
0.051066823 0.06302952 -0.03663919 0.105283014 0.026253246 0.018428298 -0.017622363 -0.07590416
0.06716597 -0.1078193 0.0705758 0.011247471 0.016858323 0.10973297 0.11042854 -0.025199007
-0.11643033 0.059502687 -0.033803172 -0.0721463 -0.05469723 -0.0011369877 0.064199574 0.13533406
-0.00369077 -0.124845706 -0.051487308 0.071964145 -0.02403214 0.09164641 0.12657309 -0.09833751
-0.09329867 0.09475202 -0.07858304 0.108772814 -0.010394445 0.011217793 -0.009930458 -0.09329323
-0.06744 0.0437394 -0.113605015 0.019966567 -0.0441845 -0.0983409 0.11138413 -0.0820976
0.04991588 -0.08074398 0.0891969 0.011134365 -0.10609886 0.052598547 -0.055206347 0.022737935
0.08244061 0.08590522 -0.018523619 0.11260196 -0.06655642 0.07859919 -0.03181498 -0.11552263
0.11030558 -0.075400196 0.05630646 -0.08531646 -0.0054975413 0.03092927 -0.11892267 0.09045421
0.07431455 -0.02585968 -0.10406854 -0.12144807 0.009916569 0.041892592 0.04788402 0.014188641
00000000: 8b0d c53b 6f8d 86bb aac4 a2bc 2f34 633d
00000010: 80c8 833d b75e a03d 3709 39bd 1d23 af3d
00000020: 9c94 283d 200f 9b3d 320b 24bd 6c98 68bd
00000030: ce65 f93c b7ae aa3d 0068 b4bd 0f03 973d
00000040: 47c6 95bc 8834 fb3d 58fd e03d f727 5ebc
00000050: a548 dd3c 2b98 8abd df57 c03a 7ada d03d
00000060: e9e1 f93d 6ebf e43d 5511 bf3c c83f 27bd
00000070: 41fc 813c cc23 07bd f57a e8bd cc11 2bbd
00000080: 7a40 a23d 2820 9ebd 6697 a43d f63c ca3d
00000090: 12ab 5b3d 57d8 863c 04e1 9d3c 65f5 79bd
000000a0: 00b1 c6bb 5ac0 13bd a9cb 853d bf1e 1e3d
000000b0: 0430 0bbc cf43 4d3c ebc0 87bd 0903 a0bc
000000c0: c779 e9bd c66f 373d 039b 9ebd b568 1d3c
000000d0: fd78 d5bc 7562 1bbd e7a8 30bd 9505 c13d
000000e0: 7eeb 963d 223b 593d b0b6 bebd 1f4d 9e3d
000000f0: c9d3 b9bd 146f 7f3d 3a5c 233d 400b 8cbd
00000100: 8f6a b43d e22c 9f3d 870e 90bc c31a 72bc
00000110: b21d 7bbd ac67 c7bb ccea b03c f820 9e3d
00000120: 78ef f2bb d954 b23d f335 913d f16a e93d
00000130: 0d4d f3bd af82 d23c 6a1b 4c3d 453e 8bbd
00000140: 77e3 dd3d 0846 4a3b dbd3 79bd b85a 22bd
00000150: d514 913d a983 79bd e7f0 4b3c 0479 983c
00000160: 1e41 733d 6623 a13d 8eae c3bd 1664 b53b
00000170: f21a b73d e53a ba3d cff6 acbc 1799 fe3d
00000180: 4375 153d dad8 c6bd 67f1 003c 12f4 9a3d
00000190: 7337 e53d 6230 533c b856 92bd cb75 c6bd
000001a0: 1810 efbd c932 083d a95d d0bd c6bb 4cbd
000001b0: 66c3 853b 5c7a fb3c a525 f33d 2e9e 53bc
000001c0: 780e b73d 279f 0e3d 74b8 db3d f8a9 a53d
000001d0: e092 1a3d a84e 8fbd f6f4 0e3d 32b5 82bd
000001e0: 6eb3 383c 11ce c1bd 8fdc b73d db68 67bd
000001f0: fec7 ae3d 3627 7ebc a49a 813d 46c2 fd3c
00000200: d3e0 fabd 8232 b23d 3a49 8abd de93 8e3d
00000210: 1c49 80bd 356e 053e ccb6 ddbd f14c c03d
00000220: 1ce0 6b3d 5656 113b 3991 dbbd 6457 a6bc
00000230: 4080 07be 56bd 973d fcb0 7e3d 214d 7abd
00000240: f22d b53d f395 8e3d 0b3a 463d e8d0 2cbc
00000250: 9fa5 d0bd c9ab 373d 4f84 ff3c 4aef d2bd
00000260: a730 1fbd 9f32 a4bd a83f d83d 258e 0cbd
00000270: 9cf2 8a3c ede4 5abc 04c0 a4bd d99e d03d
00000280: b251 043d 2259 943c c5e1 bb3d 67ac 24bb
00000290: 107d 823d 1c0c 0cbd 2076 0f3d 114f 523d
000002a0: 3af9 dd3d cf57 ecbc 6713 a63d 2cd7 373d
000002b0: 6c91 ee3d bc3c 713d eee3 92bd 3ebb e8bc
000002c0: 722b 513d 9f15 813d fa12 16bd 9f9e d73d
000002d0: 0c11 d73c f1f6 963c c65c 90bc a473 9bbd
000002e0: 508e 893d 5dd0 dcbd 0c8a 903d 5047 383c
000002f0: 771a 8a3c aebb e03d 5c28 e23d 266e cebc
00000300: 0673 eebd 17b9 733d 3275 0abd 70c1 93bd
00000310: 340a 60bd fa06 95ba 117b 833d 0395 0a3e
00000320: d8e0 71bb 1baf ffbd 5be4 52bd f061 933d
00000330: 0ddf c4bc 1db1 bb3d 609c 013e 2d65 c9bd
00000340: 6013 bfbd 590d c23d 25f0 a0bd 48c4 de3d
00000350: 764d 2abc d6ca 373c 5cb3 22bc 8510 bfbd
00000360: fc1d 8abd 1628 333d bfa9 e8bd ed90 a33c
00000370: cefa 34bd f466 c9bd 5d1d e43d c922 a8bd
00000380: 9874 4c3d 1a5d a5bd ddac b63d e96c 363c
00000390: 5c4a d9bd 9371 573d 0d20 62bd e844 ba3c
000003a0: 9fd6 a83d 13ef af3d d8be 97bc db9b e63d
000003b0: bb4e 88bd 9df8 a03d 6d50 02bd 2197 ecbd
000003c0: e4e7 e13d 6b6b 9abd 9aa1 663d 65ba aebd
000003d0: b824 b4bb 615f fd3c bb8d f3bd 0f40 b93d
000003e0: 3a32 983d aed7 d3bc e321 d5bd c4b9 f8bd
000003f0: 1b79 223c 9197 2b3d 0922 443d 7977 683c

conv2.lin_l.weight f4 [32, 64]
0.0845978 0.009869146 0.069845505 0.10136067 -0.06474561 -0.09370882 -0.09322256 -0.10038523
-0.00954133 -0.026159044 0.011351335 -0.123187415 -0.120308876 -0.09170015 -0.052827843 -0.101900525
0.052070204 0.11196926 0.09457854 0.0053262278 -0.06468829 0.08200535 -0.030108573 -0.002098146
-0.09006849 0.001295021 -0.030230299 -0.04888936 -0.082527176 0.012848344 -0.039877858 0.0041146297
-0.19745176 0.099599525 0.02598987 0.05429869 -0.05104268 -0.1017516 0.082373105 0.049522087
-0.06572768 -0.0055381637 0.049508404 0.10147785 -0.106827855 -0.07869006 -0.00063267804 -0.027675143
0.037832454 -0.025617631 -0.119380265 -0.06169781 0.05532195 0.01409714 -0.04267449 0.10935168
-0.031002417 -0.06874068 0.03072441 -0.09039982 -0.009054073 0.071320064 -0.05348806 0.122218385
-0.039189707 0.005960288 -0.11679203 -0.07945252 0.03711229 -0.11023685 -0.02029838 0.11822968
-0.021298476 0.11142862 -0.109369725 0.12378235 -0.030836342 0.08830634 0.08054051 -0.045898046
-0.050734926 0.09558021 0.08389017 -0.060089003 0.05830359 0.0139292795 0.01951664 -0.09842905
-0.11502668 -0.09388075 -0.09263439 -0.004722317 0.106390156 0.085586205 -0.02356585 -0.023989433
0.14295374 -0.017644139 -0.07556372 -0.011307935 -0.034437254 -0.034075994 -0.1239463 -0.09003247
-0.111814335 0.10038072 -0.015343557 -0.013352254 -0.11524565 -0.031816892 -0.098126516 0.07227447
-0.11593377 0.11443751 -0.061393965 0.00942436 0.104813054 0.029458813 0.01690262 -0.07636127
-0.01821851 -0.01573426 -0.090182394 -0.09831164 0.08183813 -0.11079651 0.08904902 -0.007612786
-0.110828236 -0.048299756 0.083120234 0.11119865 -0.062786594 -0.08352058 -0.122552656 -0.10294223
-0.1083605 0.07692822 0.042925935 0.08017364 0.0027260375 -0.11549898 0.0677524 0.066119716
0.0587946 -0.112540044 -0.005806623 0.046001088 0.005037244 -0.07388304 0.058432173 0.11682886
-0.115889475 0.11289934 -0.05431523 -0.015943918 0.072502576 -0.07686751 -0.0073465817 -0.022008298
-0.17788428 -0.0014461902 0.12133046 0.065903924 -0.03792296 -0.026744936 0.11264815 0.03990146
0.10661253 -0.021737324 -0.1253435 0.020381866 0.0007666062 0.12089981 -0.10309211 0.118323125
0.077265464 -0.050337076 0.12254084 0.055485252 0.036228422 -0.076438904 0.0681869 -0.11511815
-0.037318904 -0.11814545 -0.02885394 0.045548577 -0.089636445 -0.02983835 0.11896393 -0.07530345
-0.043117702 -0.10066242 -0.11149129 -0.10350942 -0.06505794 0.10574151 -0.1300142 0.097391576
-0.11098072 0.07364503 0.1225918 -0.06029652 0.07208849 0.0806515 0.146631 0.096691206
-0.066356935 -0.0703727 -0.007137005 0.06279493 0.15797287 -0.06720902 -0.032653026 0.116321735
0.034367926 -0.11239026 0.122939244 -0.039595563 0.012244534 0.039124683 0.033092555 -0.11528778
-0.004427095 -0.04206043 0.10519452 0.0839451 0.10798633 0.0036323338 -0.108747326 -0.0015721754
-0.06284228 -0.026124492 0.025992522 -0.04357117 0.057973642 0.053928923 0.059369005 -0.04091909
-0.014033248 0.210947 0.09418792 0.09863473 0.118095934 0.024706043 0.102168545 0.09950807
0.07561014 0.10781955 -0.05445358 -0.10504193 0.09742374 0.037789978 0.04686936 0.014171235
00000000: 9d41 ad3d 33b2 213c 290b 8f3d 2f96 cf3d
00000010: 5999 84bd 69ea bfbd 78eb bebd c596 cdbd
00000020: 3d53 1cbc 7e4b d6bc f3fa 393c af49 fcbd
00000030: 8064 f6bd 4acd bbbd 0262 58bd 39b1 d0bd
00000040: 9147 553d 2450 e53d 65b2 c13d a387 ae3b
00000050: 4b7b 84bd 6cf2 a73d 41a6 f6bc 0c81 09bb
00000060: d475 b8bd b2bd a93a 88a5 f7bc 3640 48bd
00000070: 0204 a9bd dc81 523c f756 23bd 04d4 863b
00000080: cb30 4abe d6fa cb3d b5e8 d43c 4e68 5e3d
00000090: 2112 51bd 2563 d0bd 3bb3 a83d acd7 4a3d
000000a0: 3c9c 86bd 7c79 b5bb 53c9 4a3d 9ed3 cf3d
000000b0: 90c8 dabd 4128 a1bd 4eda 25ba fbb6 e2bc
000000c0: 34f6 1a3d 11dc d1bc a47d f4bd d8b6 7cbd
000000d0: 4599 623d b1f7 663c 72cb 2ebd c6f3 df3d
000000e0: c8f8 fdbc eac7 8cbd c2b1 fb3c 8a23 b9bd
000000f0: 8957 14bc 4110 923d 4c16 5bbd a24d fa3d
00000100: 6385 20bd 854e c33b a930 efbd 01b8 a2bd
00000110: 0e03 183d dcc3 e1bd ca48 a6bc 6722 f23d
00000120: 247a aebc b034 e43d 3cfd dfbd 9a81 fd3d
00000130: 7f9c fcbc f4d9 b43d 6cf2 a43d 97ff 3bbd
00000140: 6dcf 4fbd 8fbf c33d 9cce ab3d e31f 76bd
00000150: bfcf 6e3d a237 643c 5ce1 9f3c 2b95 c9bd
00000160: 1c93 ebbd 8d44 c0bd 19b7 bdbd abbd 9abb
00000170: 15e3 d93d d247 af3d 2b0d c1bc 7d85 c4bc
00000180: 7762 123e 718a 90bc 27c1 9abd eb44 39bc
00000190: 140e 0dbd 4593 0bbd 8fd7 fdbd f262 b8bd
000001a0: eafe e4bd 6894 cd3d 8b63 7bbc 6ac3 5abc
000001b0: e905 ecbd 6e52 02bd 8ef6 c8bd a304 943d
000001c0: af6e edbd 375e ea3d 3d78 7bbd a168 1a3c
000001d0: 3aa8 d63d 9c53 f13c 5d77 8a3c 4c63 9cbd
000001e0: fc3e 95bc 23e5 80bc 8cb1 b8bd 9d57 c9bd
000001f0: c09a a73d 48e9 e2bd 555f b63d ad74 f9bb
00000200: eaf9 e2bd f7d5 45bd f13a aa3d 1ebc e33d
00000210: 4296 80bd d60c abbd e3fc fabd 60d3 d2bd
00000220: 1cec ddbd 8b8c 9d3d 1bd3 2f3d 1432 a43d
00000230: 52a7 323b bb8a ecbd c5c1 8a3d c669 873d
00000240: 9bd2 703d 657b e6bd 7c45 bebb a36b 3c3d
00000250: 770f a53b fe4f 97bd 9356 6f3d f843 ef3d
00000260: 7657 edbd c537 e73d a679 5ebd d29c 82bc
00000270: 3b7c 943d b76c 9dbd 98bb f0bb bf4a b4bc
00000280: 4c27 36be 178e bdba 1b7c f83d a3f8 863d
00000290: 1b55 1bbd 3218 dbbc 13b4 e63d b76f 233d
000002a0: ac57 da3d 7912 b2bc 0c5a 00be dff7 a63c
000002b0: 12f6 483a 529a f73d f521 d3bd 6553 f23d
000002c0: 5b3d 9e3d 402e 4ebd b1f6 fa3d 8144 633d
000002d0: 4164 143d 008c 9cbd 93a5 8b3d 11c3 ebbd
000002e0: b5db 18bd 3ef6 f1bd 195f ecbc 2591 3a3d
000002f0: 5093 b7bd 8e6f f4bc 5ca3 f33d b238 9abd
00000300: 309c 30bd 1928 cebd 8c55 e4bd bffc d3bd
00000310: 193d 85bd 018f d83d 7122 05be 3c75 c73d
00000320: dc49 e3bd 35d3 963d 6911 fb3d 7cf9 76bd
00000330: 21a3 933d 9d2c a53d 7026 163e 0a06 c63d
00000340: 25e6 87bd 901f 90bd 8add e9bb a19a 803d
00000350: a4c3 213e e2a4 89bd 2ebf 05bd 173a ee3d
00000360: 62c5 0c3d dd2c e6bd 92c7 fb3d f52e 22bd
00000370: 4c9d 483c 3441 203d 0f8c 073d 001c ecbd
00000380: 2a11 91bb 8f47 2cbd 3970 d73d 69eb ab3d
00000390: f027 dd3d 730c 6e3b ebb6 debd 7411 ceba
000003a0: 74b3 80bd 0803 d6bc 45ee d43c af77 32bd
000003b0: c575 6d3d 93e4 5c3d ea2c 733d c79a 27bd
000003c0: b5eb 65bc 7e02 583e 99e5 c03d 0101 ca3d
000003d0: 48dc f13d 5464 ca3c be3d d13d e3ca cb3d
000003e0: 7dd9 9a3d 7fd0 dc3d b80a 5fbd 3920 d7bd
000003f0: 1986 c73d aac9 1a3d 16fa 3f3d 782e 683c

conv2.lin_l.bias f4 [32]
-0.10336921 -0.080514655 0.019382743 0.08340837 -0.060708214 0.034196936 -0.04226901 0.011434594
0.032074742 0.11035547 0.064405315 0.11374276 -0.11527759 -0.08274157 -0.037508413 -0.067292
-0.02472473 -0.07061402 0.02959823 -0.0172616 -0.07555559 -0.102049336 -0.0959794 -0.06625106
0.12530321 -0.023572568 0.028684076 0.016663315 0.010857432 0.026208747 0.08774509 -0.017721778
00000000: 3db3 d3bd dee4 a4bd 8fc8 9e3c 02d2 aa3d
00000010: 2da9 78bd 1612 0c3d 4522 2dbd 2a58 3b3c
00000020: ce60 033d 0c02 e23d efe6 833d f7f1 e83d
00000030: a816 ecbd 6a74 a9bd 6ca2 19bd 63d0 89bd
00000040: 848b cabc 159e 90bd fd77 f23c 3368 8dbc
00000050: e4bc 9abd 3eff d0bd d990 c4bd a3ae 87bd
00000060: 7c4f 003e 421b c1bc defa ea3c 8181 883c
00000070: 5fe3 313c bab3 d63c b3b3 b33d 432d 91bc

conv2.lin_r.weight f4 [32, 64]
0.056848876 0.08540625 0.102497764 -0.08283973 0.0053564208 -0.06973478 0.09705951 0.066158794
0.052543245 0.019861296 -0.016993707 -8.437101e-05 0.0008265176 0.10594056 0.08739679 -0.06749348
-0.08277211 -0.09950393 -0.12172011 0.047377944 0.015512432 -0.038650993 -0.12897964 -0.11040547
-0.041909236 -0.08953995 0.012028719 0.08804315 -0.11305378 -0.0641111 0.08925181 -0.014865868
0.10520228 -0.016303241 -0.0015657241 0.03258047 0.044348285 0.05662251 -0.069042526 -0.20128238
0.11392425 -0.11929045 0.06486198 -0.1056039 -0.07238979 0.0055995076 0.09063243 -0.0055817924
-0.06494727 -0.12751223 0.18750274 -0.070680544 -0.034439612 0.0003200673 -0.054171402 0.055102143
0.06656708 0.1274085 0.048094098 0.056310534 -0.039683886 0.043981273 -0.050747424 -0.011133125
0.047822278 0.09943185 0.006256631 0.04577438 -0.025652274 0.057971787 -0.06556945 0.09562695
-0.08260059 0.058906395 0.097046316 -0.095649034 0.03499753 -0.0053074313 0.009325744 -0.021199133
-0.12509874 -0.11189576 0.038619507 -0.014387129 0.09021232 0.060298853 -0.04138839 -0.0786623
-0.019792937 0.014451994 -0.013408238 0.02097774 0.08175372 -0.008254938 0.042816672 0.042037018
-0.041601762 -0.08670835 0.058953322 0.018248761 0.057191387 0.11574711 -0.08726462 0.10436648
0.04267147 0.05813255 0.077396885 0.0989676 -0.10442326 -0.1132216 -0.056102905 -0.07812524
-0.10733791 -0.0005672278 -0.07533227 0.0017386161 0.03690591 -0.108068325 -0.054387894 -0.031086443
-0.0106663015 0.06888216 0.051569976 0.114659674 -0.09226892 0.0203619 -0.05695581 -0.07854768
0.061443184 -0.005819679 0.03977861 0.06445016 0.03896854 0.08964867 -0.03223043 0.016025305
0.022251507 -0.0026488595 -0.06325092 -0.007968468 -0.021043459 0.07546181 -0.054196782 0.059320886
0.059360854 0.07751683 0.021306105 -0.05646704 -0.04515009 -0.12023876 0.0065962276 0.12296961
-0.040287066 -0.039394274 0.077843 0.05412605 0.013173022 0.06398658 0.068405084 0.11323726
-0.0016350953 0.066142425 -0.034859203 0.014971596 -0.08646533 -0.0789473 -0.017630512 0.030320285
0.0023628026 -0.10346222 0.006120651 -0.1122171 0.093414344 -0.12613614 0.028366547 -0.027616931
0.05154206 -0.08658461 0.13005118 0.01091577 0.037120815 -0.08163364 -0.030176023 -0.107193746
-0.03155408 -0.07645073 -0.13849054 -0.017949099 -0.0015427651 0.023971977 -0.11656727 0.046327133
0.060048632 -0.033493172 -0.05619895 -0.019973693 0.060077623 0.019471014 0.063499644 0.080207154
-0.056074895 -0.08358696 -0.13328545 0.10063623 -0.11501899 0.1100983 0.08348246 0.045964293
0.011453104 0.06419259 -0.024591269 -0.09761176 -0.014458396 0.06473418 0.11080022 -0.09306886
-0.103180714 -0.027309325 0.051582113 0.013070381 -0.07857032 -0.0058217617 0.111029625 -0.030878363
-0.058015622 0.025405021 -0.07631192 -0.061443873 0.11091495 -0.05936551 0.055763267 0.19658183
-0.0997722 0.007206815 -0.11273076 -0.11109441 0.063861385 -0.01728904 0.038928263 0.12179729
-0.0071720947 -0.06437742 -0.1319458 -0.10371728 0.06328078 -0.032360006 0.051740933 0.10360288
0.087164395 0.06994513 0.08128504 -0.0029744578 -0.07986957 -0.14182422 -0.11569523 -0.1177366
00000000: 5eda 683d 79e9 ae3d 59ea d13d e0a7 a9bd
00000010: ea84 af3b 1cd1 8ebd 23c7 c63d 437e 873d
00000020: 9637 573d 28b4 a23c 6336 8bbc 57f0 b0b8
00000030: a8aa 583a 5df7 d83d 17fd b23d 063a 8abd
00000040: 6d84 a9bd b7c8 cbbd 6548 f9bd 600f 423d
00000050: db27 7e3c 8150 1ebd 3d13 04be 431c e2bd
00000060: 05a9 2bbd b960 b7bd 1b14 453c f84f b43d
00000070: bd88 e7bd ae4c 83bd a7c9 b63d f88f 73bc
00000080: 4b74 d73d 608e 85bc fc38 cdba 1973 053d
00000090: 8ca6 353d 01ed 673d 2b66 8dbd f81c 4ebe
000000a0: 1e51 e93d 8d4e f4bd 5cd6 843d dc46 d8bd
000000b0: 1941 94bd 137c b73b 7f9d b93d 78e7 b6bb
000000c0: 1303 85bd 9192 02be b800 403e f6c0 90bd
000000d0: 8d10 0dbd b5ce a739 d5e2 5dbd c9b2 613d
000000e0: 5254 883d 6077 023e 51fe 443d e0a5 663d
000000f0: 928b 22bd b525 343d 88dc 4fbd b667 36bc
00000100: 4be1 433d eda2 cb3d 6d04 cd3b eb7d 3b3d
00000110: b824 d2bc d373 6d3d 4749 86bd 10d8 c33d
00000120: 802a a9bd d547 713d 38c0 c63d a4e3 c3bd
00000130: 9259 0f3d f6e9 adbb 01cb 183c cea9 adbc
00000140: e219 00be 9b29 e5bd 7d2f 1e3d feb7 6bbc
00000150: 3dc1 b83d eefb 763d df86 29bd b319 a1bd
00000160: cc24 a2bc 0ec8 6c3c 3aae 5bbc 82d9 ab3c
00000170: 7f6e a73d b83f 07bc 8960 2f3d 022f 2c3d
00000180: 9c66 2abd 2694 b1bd 0a79 713d 6d7e 953c
00000190: 8441 6a3d d20c ed3d cbb7 b2bd 18be d53d
000001a0: 48c8 2e3d 661c 6e3d 4282 9e3d 86af ca3d
000001b0: dddb d5bd bae0 e7bd 29cc 65bd 2000 a0bd
000001c0: fad3 dbbd 03b2 14ba ce47 9abd 47e2 e33a
000001d0: a72a 173d ed52 ddbd d7c5 5ebd ffa8 febc
000001e0: b6c1 2ebc 1712 8d3d 0a3b 533d b1d2 ea3d
000001f0: 7df7 bcbd 00ce a63c 7f4a 69bd 9bdd a0bd
00000200: d9ab 7b3d 01b3 bebb e5ee 223d 72fe 833d
00000210: 7a9d 1f3d b999 b73d 0e04 04bd 8047 833c
00000220: cb48 b63c 7d98 2dbb b389 81bd 2d8e 02bc
00000230: 5563 acbc b98b 9a3d 72fd 5dbd 75fa 723d
00000240: 5e24 733d 25c1 9e3d 248a ae3c fc49 67bd
00000250: 4def 38bd bd3f f6bd 2b25 d83b 7ed7 fb3d
00000260: 0d04 25bd e45b 21bd 276c 9f3d 47b3 5d3d
00000270: a9d3 573c 650b 833d f717 8c3d f0e8 e73d
00000280: b250 d6ba ae75 873d 86c8 0ebd 6d4b 753c
00000290: bc14 b1bd 1faf a1bd dd6d 90bc 3f62 f83c
000002a0: 40d9 1a3b 00e4 d3bd be8f c83b 14d2 e5bd
000002b0: 0550 bf3d d529 01be f660 e83c e73c e2bc
000002c0: c41d 533d 4653 b1bd 232c 053e 0fd8 323c
000002d0: ff0b 183d 8a2f a7bd b533 f7bc 6588 dbbd
000002e0: da3e 01bd 3392 9cbd 77d0 0dbe fd09 93bc
000002f0: 9b36 caba e160 c43c d2ba eebd 85c1 3d3d
00000300: 8ef5 753d 2330 09bd df30 66bd df9f a3bc
00000310: f413 763d ad81 9f3c 1a0c 823d a643 a43d
00000320: caae 65bd a42f abbd fb7b 08be 5e1a ce3d
00000330: 148f ebbd 387b e13d daf8 aa3d 0e45 3c3d
00000340: cda5 3b3c 6877 833d a173 c9bc ade8 c7bd
00000350: e8e2 6cbc 5b93 843d 3aeb e23d e39a bebd
00000360: 6950 d3bd ceb7 dfbc c447 533d 2725 563c
00000370: 7ae9 a0bd 7ac4 bebb 8063 e33d 9ff4 fcbc
00000380: caa1 6dbd 311e d03c 6d49 9cbd 92ac 7bbd
00000390: 6127 e33d 4029 73bd 0668 643d bf4c 493e
000003a0: 5e55 ccbd 2527 ec3b 62df e6bd 7785 e3bd
000003b0: c2c9 823d bfa1 8dbc 3e73 1f3d dc70 f93d
000003c0: e403 ebbb 4fd8 83bd cd1c 07be ba69 d4bd
000003d0: 5b99 813d ed8b 04bd 4dee 533d bf2d d43d
000003e0: 3f83 b23d 643f 8f3d c578 a63d 1fef 42bb
000003f0: a892 a3bd 5e3a 11be 9ff1 ecbd e31f f1bd

fc.weight f4 [1, 64]
-0.02969933 0.028137065 -0.06543384 0.013633404 -0.10149279 0.11412598 0.091176145 -0.015436021
-0.09510213 -0.10247196 0.0065950467 0.08347208 0.023852581 0.084636524 0.09776604 0.1053432
0.07922264 -0.09349823 0.06353614 -0.0557368 0.02217905 -0.09016174 -0.017487288 -0.042654853
0.09207219 0.014035759 -0.1141552 -0.021138374 -0.04053848 0.10925607 0.029863335 -0.06445854
-0.051642753 0.020148994 -0.08515064 0.113818154 0.026308734 0.047392663 -0.05192648 -0.016797306
0.123354666 0.0012802281 -0.07567892 0.08338851 -0.0026278326 -0.012496496 -0.120060414 0.05067112
-0.030344725 0.113606505 0.0136814425 0.05603003 -0.08688364 0.004744864 0.033815518 -0.022562295
-0.05118256 0.097292304 -0.01889752 0.04992783 -0.060578924 -0.0180387 -0.08075486 -0.076011986
00000000: 024c f3bc b47f e63c 2d02 86bd a45e 5f3c
00000010: 74db cfbd e2ba e93d 8fba ba3d 5de7 7cbc
00000020: e8c4 c2bd d2dc d1bd 431b d83b 69f3 aa3d
00000030: 7d66 c33c ea55 ad3d 9039 c83d 2dbe d73d
00000040: 7b3f a23d 007c bfbd 3c1f 823d 454c 64bd
00000050: d7b0 b53c b8a6 b8bd 8041 8fbc dbb6 2ebd
00000060: 5890 bc3d 3df6 653c 34ca e9bd 622a adbc
00000070: ad0b 26bd a5c1 df3d f4a3 f43c d702 84bd
00000080: 5a87 53bd 810f a53c 7563 aebd 7e19 e93d
00000090: 6a85 d73c cf1e 423d dcb0 54bd 819a 89bc
000000a0: 5fa1 fc3d 54cd a73a 8dfd 9abd 98c7 aa3d
000000b0: b737 2cbb 1abe 4cbc 3ce2 f5bd 858c 4f3d
000000c0: 8095 f8bc 87aa e83d 2128 603c bf7f 653d
000000d0: 0df0 b1bd ce7a 9b3b 2482 0a3d 90d4 b8bc
000000e0: cea4 51bd 3041 c73d f9ce 9abc 2081 4c3d
000000f0: 9b21 78bd e5c5 93bc ce62 a5bd 2cac 9bbd
